{"format": "graph-model", "generatedBy": "2.16.2", "convertedBy": "TensorFlow.js Converter v4.20.0", "signature": {"outputs": {"Identity:0": {"name": "Identity:0"}}}, "modelTopology": {"node": [{"name": "ConstantFolding/PartitionedCall/model_63/tf.math.divide_4/truediv_recip", "op": "Const", "attr": {"dtype": {"type": "DT_FLOAT"}, "value": {"tensor": {"dtype": "DT_FLOAT", "tensorShape": {"dim": [{"size": "1"}, {"size": "1"}, {"size": "1"}]}}}}}, {"name": "87057", "op": "Const", "attr": {"value": {"tensor": {"dtype": "DT_FLOAT", "tensorShape": {"dim": [{"size": "1"}, {"size": "2"}, {"size": "13125"}]}}}, "dtype": {"type": "DT_FLOAT"}}}, {"name": "87049", "op": "Const", "attr": {"value": {"tensor": {"dtype": "DT_INT64", "tensorShape": {"dim": [{"size": "3"}]}}}, "dtype": {"type": "DT_INT64"}}}, {"name": "87051", "op": "Const", "attr": {"value": {"tensor": {"dtype": "DT_INT64", "tensorShape": {"dim": [{"size": "3"}]}}}, "dtype": {"type": "DT_INT64"}}}, {"name": "PartitionedCall/model_63/tf.strided_slice_99/ones_like", "op": "Const", "attr": {"value": {"tensor": {"dtype": "DT_INT64", "tensorShape": {"dim": [{"size": "3"}]}}}, "dtype": {"type": "DT_INT64"}}}, {"name": "87059", "op": "Const", "attr": {"dtype": {"type": "DT_FLOAT"}, "value": {"tensor": {"dtype": "DT_FLOAT", "tensorShape": {"dim": [{"size": "1"}, {"size": "2"}, {"size": "13125"}]}}}}}, {"name": "87043", "op": "Const", "attr": {"value": {"tensor": {"dtype": "DT_INT64", "tensorShape": {"dim": [{"size": "3"}]}}}, "dtype": {"type": "DT_INT64"}}}, {"name": "87045", "op": "Const", "attr": {"dtype": {"type": "DT_INT64"}, "value": {"tensor": {"dtype": "DT_INT64", "tensorShape": {"dim": [{"size": "3"}]}}}}}, {"name": "PartitionedCall/model_63/tf.strided_slice_96/StridedSlice/strides", "op": "Const", "attr": {"dtype": {"type": "DT_INT64"}, "value": {"tensor": {"dtype": "DT_INT64", "tensorShape": {"dim": [{"size": "3"}]}}}}}, {"name": "PartitionedCall/model_63/tf.reshape_71/Reshape/shape", "op": "Const", "attr": {"value": {"tensor": {"dtype": "DT_INT32", "tensorShape": {"dim": [{"size": "4"}]}}}, "dtype": {"type": "DT_INT32"}}}, {"name": "PartitionedCall/model_63/tf.compat.v1.transpose_131/transpose/perm", "op": "Const", "attr": {"dtype": {"type": "DT_INT32"}, "value": {"tensor": {"dtype": "DT_INT32", "tensorShape": {"dim": [{"size": "4"}]}}}}}, {"name": "PartitionedCall/model_63/tf.compat.v1.transpose_132/transpose/perm", "op": "Const", "attr": {"dtype": {"type": "DT_INT32"}, "value": {"tensor": {"dtype": "DT_INT32", "tensorShape": {"dim": [{"size": "4"}]}}}}}, {"name": "87047", "op": "Const", "attr": {"value": {"tensor": {"dtype": "DT_FLOAT", "tensorShape": {"dim": [{"size": "1"}, {"size": "1"}, {"size": "16"}, {"size": "1"}]}}}, "dtype": {"type": "DT_FLOAT"}}}, {"name": "PartitionedCall/model_63/tf.compat.v1.transpose_137/transpose/perm", "op": "Const", "attr": {"dtype": {"type": "DT_INT32"}, "value": {"tensor": {"dtype": "DT_INT32", "tensorShape": {"dim": [{"size": "4"}]}}}}}, {"name": "PartitionedCall/model_63/tf.reshape_74/Reshape/shape", "op": "Const", "attr": {"value": {"tensor": {"dtype": "DT_INT32", "tensorShape": {"dim": [{"size": "3"}]}}}, "dtype": {"type": "DT_INT32"}}}, {"name": "87053", "op": "Const", "attr": {"dtype": {"type": "DT_INT64"}, "value": {"tensor": {"dtype": "DT_INT64", "tensorShape": {"dim": [{"size": "3"}]}}}}}, {"name": "87055", "op": "Const", "attr": {"value": {"tensor": {"dtype": "DT_INT64", "tensorShape": {"dim": [{"size": "3"}]}}}, "dtype": {"type": "DT_INT64"}}}, {"name": "PartitionedCall/model_63/tf.strided_slice_98/ones_like", "op": "Const", "attr": {"dtype": {"type": "DT_INT64"}, "value": {"tensor": {"dtype": "DT_INT64", "tensorShape": {"dim": [{"size": "3"}]}}}}}, {"name": "PartitionedCall/model_63/tf.concat_100/concat/axis", "op": "Const", "attr": {"dtype": {"type": "DT_INT32"}, "value": {"tensor": {"dtype": "DT_INT32", "tensorShape": {}}}}}, {"name": "PartitionedCall/model_63/tf.math.multiply_1266/Mul/y", "op": "Const", "attr": {"dtype": {"type": "DT_FLOAT"}, "value": {"tensor": {"dtype": "DT_FLOAT", "tensorShape": {"dim": [{"size": "1"}, {"size": "1"}, {"size": "13125"}]}}}}}, {"name": "86981", "op": "Const", "attr": {"dtype": {"type": "DT_FLOAT"}, "value": {"tensor": {"dtype": "DT_FLOAT", "tensorShape": {"dim": [{"size": "3"}, {"size": "3"}, {"size": "64"}, {"size": "64"}]}}}}}, {"name": "86993", "op": "Const", "attr": {"value": {"tensor": {"dtype": "DT_FLOAT", "tensorShape": {"dim": [{"size": "64"}]}}}, "dtype": {"type": "DT_FLOAT"}}}, {"name": "87005", "op": "Const", "attr": {"dtype": {"type": "DT_FLOAT"}, "value": {"tensor": {"dtype": "DT_FLOAT", "tensorShape": {"dim": [{"size": "3"}, {"size": "3"}, {"size": "64"}, {"size": "64"}]}}}}}, {"name": "87017", "op": "Const", "attr": {"value": {"tensor": {"dtype": "DT_FLOAT", "tensorShape": {"dim": [{"size": "64"}]}}}, "dtype": {"type": "DT_FLOAT"}}}, {"name": "87029", "op": "Const", "attr": {"value": {"tensor": {"dtype": "DT_FLOAT", "tensorShape": {"dim": [{"size": "1"}, {"size": "1"}, {"size": "64"}, {"size": "64"}]}}}, "dtype": {"type": "DT_FLOAT"}}}, {"name": "87039", "op": "Const", "attr": {"value": {"tensor": {"dtype": "DT_FLOAT", "tensorShape": {"dim": [{"size": "64"}]}}}, "dtype": {"type": "DT_FLOAT"}}}, {"name": "86979", "op": "Const", "attr": {"dtype": {"type": "DT_FLOAT"}, "value": {"tensor": {"dtype": "DT_FLOAT", "tensorShape": {"dim": [{"size": "3"}, {"size": "3"}, {"size": "64"}, {"size": "80"}]}}}}}, {"name": "86991", "op": "Const", "attr": {"value": {"tensor": {"dtype": "DT_FLOAT", "tensorShape": {"dim": [{"size": "80"}]}}}, "dtype": {"type": "DT_FLOAT"}}}, {"name": "87003", "op": "Const", "attr": {"dtype": {"type": "DT_FLOAT"}, "value": {"tensor": {"dtype": "DT_FLOAT", "tensorShape": {"dim": [{"size": "3"}, {"size": "3"}, {"size": "80"}, {"size": "80"}]}}}}}, {"name": "87015", "op": "Const", "attr": {"dtype": {"type": "DT_FLOAT"}, "value": {"tensor": {"dtype": "DT_FLOAT", "tensorShape": {"dim": [{"size": "80"}]}}}}}, {"name": "87027", "op": "Const", "attr": {"dtype": {"type": "DT_FLOAT"}, "value": {"tensor": {"dtype": "DT_FLOAT", "tensorShape": {"dim": [{"size": "1"}, {"size": "1"}, {"size": "80"}, {"size": "80"}]}}}}}, {"name": "87041", "op": "Const", "attr": {"dtype": {"type": "DT_FLOAT"}, "value": {"tensor": {"dtype": "DT_FLOAT", "tensorShape": {"dim": [{"size": "80"}]}}}}}, {"name": "PartitionedCall/model_63/tf.concat_90/concat/axis", "op": "Const", "attr": {"value": {"tensor": {"dtype": "DT_INT32", "tensorShape": {}}}, "dtype": {"type": "DT_INT32"}}}, {"name": "PartitionedCall/model_63/tf.compat.v1.transpose_114/transpose/perm", "op": "Const", "attr": {"value": {"tensor": {"dtype": "DT_INT32", "tensorShape": {"dim": [{"size": "4"}]}}}, "dtype": {"type": "DT_INT32"}}}, {"name": "PartitionedCall/model_63/tf.reshape_62/Reshape/shape", "op": "Const", "attr": {"value": {"tensor": {"dtype": "DT_INT32", "tensorShape": {"dim": [{"size": "3"}]}}}, "dtype": {"type": "DT_INT32"}}}, {"name": "86977", "op": "Const", "attr": {"value": {"tensor": {"dtype": "DT_FLOAT", "tensorShape": {"dim": [{"size": "3"}, {"size": "3"}, {"size": "128"}, {"size": "64"}]}}}, "dtype": {"type": "DT_FLOAT"}}}, {"name": "86989", "op": "Const", "attr": {"value": {"tensor": {"dtype": "DT_FLOAT", "tensorShape": {"dim": [{"size": "64"}]}}}, "dtype": {"type": "DT_FLOAT"}}}, {"name": "87001", "op": "Const", "attr": {"value": {"tensor": {"dtype": "DT_FLOAT", "tensorShape": {"dim": [{"size": "3"}, {"size": "3"}, {"size": "64"}, {"size": "64"}]}}}, "dtype": {"type": "DT_FLOAT"}}}, {"name": "87013", "op": "Const", "attr": {"dtype": {"type": "DT_FLOAT"}, "value": {"tensor": {"dtype": "DT_FLOAT", "tensorShape": {"dim": [{"size": "64"}]}}}}}, {"name": "87025", "op": "Const", "attr": {"dtype": {"type": "DT_FLOAT"}, "value": {"tensor": {"dtype": "DT_FLOAT", "tensorShape": {"dim": [{"size": "1"}, {"size": "1"}, {"size": "64"}, {"size": "64"}]}}}}}, {"name": "87035", "op": "Const", "attr": {"value": {"tensor": {"dtype": "DT_FLOAT", "tensorShape": {"dim": [{"size": "64"}]}}}, "dtype": {"type": "DT_FLOAT"}}}, {"name": "86975", "op": "Const", "attr": {"dtype": {"type": "DT_FLOAT"}, "value": {"tensor": {"dtype": "DT_FLOAT", "tensorShape": {"dim": [{"size": "3"}, {"size": "3"}, {"size": "128"}, {"size": "80"}]}}}}}, {"name": "86987", "op": "Const", "attr": {"value": {"tensor": {"dtype": "DT_FLOAT", "tensorShape": {"dim": [{"size": "80"}]}}}, "dtype": {"type": "DT_FLOAT"}}}, {"name": "86999", "op": "Const", "attr": {"value": {"tensor": {"dtype": "DT_FLOAT", "tensorShape": {"dim": [{"size": "3"}, {"size": "3"}, {"size": "80"}, {"size": "80"}]}}}, "dtype": {"type": "DT_FLOAT"}}}, {"name": "87011", "op": "Const", "attr": {"dtype": {"type": "DT_FLOAT"}, "value": {"tensor": {"dtype": "DT_FLOAT", "tensorShape": {"dim": [{"size": "80"}]}}}}}, {"name": "87023", "op": "Const", "attr": {"value": {"tensor": {"dtype": "DT_FLOAT", "tensorShape": {"dim": [{"size": "1"}, {"size": "1"}, {"size": "80"}, {"size": "80"}]}}}, "dtype": {"type": "DT_FLOAT"}}}, {"name": "87037", "op": "Const", "attr": {"value": {"tensor": {"dtype": "DT_FLOAT", "tensorShape": {"dim": [{"size": "80"}]}}}, "dtype": {"type": "DT_FLOAT"}}}, {"name": "PartitionedCall/model_63/tf.concat_93/concat/axis", "op": "Const", "attr": {"dtype": {"type": "DT_INT32"}, "value": {"tensor": {"dtype": "DT_INT32", "tensorShape": {}}}}}, {"name": "PartitionedCall/model_63/tf.compat.v1.transpose_119/transpose/perm", "op": "Const", "attr": {"dtype": {"type": "DT_INT32"}, "value": {"tensor": {"dtype": "DT_INT32", "tensorShape": {"dim": [{"size": "4"}]}}}}}, {"name": "PartitionedCall/model_63/tf.reshape_65/Reshape/shape", "op": "Const", "attr": {"dtype": {"type": "DT_INT32"}, "value": {"tensor": {"dtype": "DT_INT32", "tensorShape": {"dim": [{"size": "3"}]}}}}}, {"name": "86973", "op": "Const", "attr": {"value": {"tensor": {"dtype": "DT_FLOAT", "tensorShape": {"dim": [{"size": "3"}, {"size": "3"}, {"size": "256"}, {"size": "64"}]}}}, "dtype": {"type": "DT_FLOAT"}}}, {"name": "86985", "op": "Const", "attr": {"dtype": {"type": "DT_FLOAT"}, "value": {"tensor": {"dtype": "DT_FLOAT", "tensorShape": {"dim": [{"size": "64"}]}}}}}, {"name": "86997", "op": "Const", "attr": {"value": {"tensor": {"dtype": "DT_FLOAT", "tensorShape": {"dim": [{"size": "3"}, {"size": "3"}, {"size": "64"}, {"size": "64"}]}}}, "dtype": {"type": "DT_FLOAT"}}}, {"name": "87009", "op": "Const", "attr": {"dtype": {"type": "DT_FLOAT"}, "value": {"tensor": {"dtype": "DT_FLOAT", "tensorShape": {"dim": [{"size": "64"}]}}}}}, {"name": "87021", "op": "Const", "attr": {"dtype": {"type": "DT_FLOAT"}, "value": {"tensor": {"dtype": "DT_FLOAT", "tensorShape": {"dim": [{"size": "1"}, {"size": "1"}, {"size": "64"}, {"size": "64"}]}}}}}, {"name": "87031", "op": "Const", "attr": {"value": {"tensor": {"dtype": "DT_FLOAT", "tensorShape": {"dim": [{"size": "64"}]}}}, "dtype": {"type": "DT_FLOAT"}}}, {"name": "86963", "op": "Const", "attr": {"dtype": {"type": "DT_INT64"}, "value": {"tensor": {"dtype": "DT_INT64", "tensorShape": {"dim": [{"size": "4"}]}}}}}, {"name": "86965", "op": "Const", "attr": {"value": {"tensor": {"dtype": "DT_INT64", "tensorShape": {"dim": [{"size": "4"}]}}}, "dtype": {"type": "DT_INT64"}}}, {"name": "PartitionedCall/model_63/tf.strided_slice_94/ones_like", "op": "Const", "attr": {"dtype": {"type": "DT_INT64"}, "value": {"tensor": {"dtype": "DT_INT64", "tensorShape": {"dim": [{"size": "4"}]}}}}}, {"name": "86933", "op": "Const", "attr": {"value": {"tensor": {"dtype": "DT_INT64", "tensorShape": {"dim": [{"size": "4"}]}}}, "dtype": {"type": "DT_INT64"}}}, {"name": "86935", "op": "Const", "attr": {"dtype": {"type": "DT_INT64"}, "value": {"tensor": {"dtype": "DT_INT64", "tensorShape": {"dim": [{"size": "4"}]}}}}}, {"name": "PartitionedCall/model_63/tf.strided_slice_92/ones_like", "op": "Const", "attr": {"value": {"tensor": {"dtype": "DT_INT64", "tensorShape": {"dim": [{"size": "4"}]}}}, "dtype": {"type": "DT_INT64"}}}, {"name": "86903", "op": "Const", "attr": {"value": {"tensor": {"dtype": "DT_INT64", "tensorShape": {"dim": [{"size": "4"}]}}}, "dtype": {"type": "DT_INT64"}}}, {"name": "86905", "op": "Const", "attr": {"value": {"tensor": {"dtype": "DT_INT64", "tensorShape": {"dim": [{"size": "4"}]}}}, "dtype": {"type": "DT_INT64"}}}, {"name": "PartitionedCall/model_63/tf.strided_slice_90/ones_like", "op": "Const", "attr": {"dtype": {"type": "DT_INT64"}, "value": {"tensor": {"dtype": "DT_INT64", "tensorShape": {"dim": [{"size": "4"}]}}}}}, {"name": "PartitionedCall/model_63/tf.image.resize_9/resize/size", "op": "Const", "attr": {"value": {"tensor": {"dtype": "DT_INT32", "tensorShape": {"dim": [{"size": "2"}]}}}, "dtype": {"type": "DT_INT32"}}}, {"name": "PartitionedCall/model_63/tf.concat_87/concat/axis", "op": "Const", "attr": {"dtype": {"type": "DT_INT32"}, "value": {"tensor": {"dtype": "DT_INT32", "tensorShape": {}}}}}, {"name": "86887", "op": "Const", "attr": {"dtype": {"type": "DT_FLOAT"}, "value": {"tensor": {"dtype": "DT_FLOAT", "tensorShape": {"dim": [{"size": "1"}, {"size": "1"}, {"size": "192"}, {"size": "64"}]}}}}}, {"name": "86889", "op": "Const", "attr": {"value": {"tensor": {"dtype": "DT_FLOAT", "tensorShape": {"dim": [{"size": "64"}]}}}, "dtype": {"type": "DT_FLOAT"}}}, {"name": "86891", "op": "Const", "attr": {"value": {"tensor": {"dtype": "DT_INT64", "tensorShape": {"dim": [{"size": "4"}]}}}, "dtype": {"type": "DT_INT64"}}}, {"name": "86893", "op": "Const", "attr": {"dtype": {"type": "DT_INT64"}, "value": {"tensor": {"dtype": "DT_INT64", "tensorShape": {"dim": [{"size": "4"}]}}}}}, {"name": "PartitionedCall/model_63/tf.strided_slice_91/ones_like", "op": "Const", "attr": {"value": {"tensor": {"dtype": "DT_INT64", "tensorShape": {"dim": [{"size": "4"}]}}}, "dtype": {"type": "DT_INT64"}}}, {"name": "86895", "op": "Const", "attr": {"value": {"tensor": {"dtype": "DT_FLOAT", "tensorShape": {"dim": [{"size": "3"}, {"size": "3"}, {"size": "32"}, {"size": "32"}]}}}, "dtype": {"type": "DT_FLOAT"}}}, {"name": "86897", "op": "Const", "attr": {"dtype": {"type": "DT_FLOAT"}, "value": {"tensor": {"dtype": "DT_FLOAT", "tensorShape": {"dim": [{"size": "32"}]}}}}}, {"name": "86899", "op": "Const", "attr": {"value": {"tensor": {"dtype": "DT_FLOAT", "tensorShape": {"dim": [{"size": "3"}, {"size": "3"}, {"size": "32"}, {"size": "32"}]}}}, "dtype": {"type": "DT_FLOAT"}}}, {"name": "86901", "op": "Const", "attr": {"value": {"tensor": {"dtype": "DT_FLOAT", "tensorShape": {"dim": [{"size": "32"}]}}}, "dtype": {"type": "DT_FLOAT"}}}, {"name": "PartitionedCall/model_63/tf.concat_88/concat/axis", "op": "Const", "attr": {"dtype": {"type": "DT_INT32"}, "value": {"tensor": {"dtype": "DT_INT32", "tensorShape": {}}}}}, {"name": "86907", "op": "Const", "attr": {"value": {"tensor": {"dtype": "DT_FLOAT", "tensorShape": {"dim": [{"size": "1"}, {"size": "1"}, {"size": "96"}, {"size": "64"}]}}}, "dtype": {"type": "DT_FLOAT"}}}, {"name": "86909", "op": "Const", "attr": {"value": {"tensor": {"dtype": "DT_FLOAT", "tensorShape": {"dim": [{"size": "64"}]}}}, "dtype": {"type": "DT_FLOAT"}}}, {"name": "86911", "op": "Const", "attr": {"dtype": {"type": "DT_INT32"}, "value": {"tensor": {"dtype": "DT_INT32", "tensorShape": {"dim": [{"size": "4"}, {"size": "2"}]}}}}}, {"name": "86913", "op": "Const", "attr": {"dtype": {"type": "DT_FLOAT"}, "value": {"tensor": {"dtype": "DT_FLOAT", "tensorShape": {"dim": [{"size": "3"}, {"size": "3"}, {"size": "64"}, {"size": "64"}]}}}}}, {"name": "86915", "op": "Const", "attr": {"value": {"tensor": {"dtype": "DT_FLOAT", "tensorShape": {"dim": [{"size": "64"}]}}}, "dtype": {"type": "DT_FLOAT"}}}, {"name": "86879", "op": "Const", "attr": {"dtype": {"type": "DT_INT64"}, "value": {"tensor": {"dtype": "DT_INT64", "tensorShape": {"dim": [{"size": "4"}]}}}}}, {"name": "86881", "op": "Const", "attr": {"dtype": {"type": "DT_INT64"}, "value": {"tensor": {"dtype": "DT_INT64", "tensorShape": {"dim": [{"size": "4"}]}}}}}, {"name": "PartitionedCall/model_63/tf.strided_slice_88/ones_like", "op": "Const", "attr": {"value": {"tensor": {"dtype": "DT_INT64", "tensorShape": {"dim": [{"size": "4"}]}}}, "dtype": {"type": "DT_INT64"}}}, {"name": "PartitionedCall/model_63/tf.image.resize_8/resize/size", "op": "Const", "attr": {"dtype": {"type": "DT_INT32"}, "value": {"tensor": {"dtype": "DT_INT32", "tensorShape": {"dim": [{"size": "2"}]}}}}}, {"name": "PartitionedCall/model_63/tf.concat_85/concat/axis", "op": "Const", "attr": {"dtype": {"type": "DT_INT32"}, "value": {"tensor": {"dtype": "DT_INT32", "tensorShape": {}}}}}, {"name": "86863", "op": "Const", "attr": {"value": {"tensor": {"dtype": "DT_FLOAT", "tensorShape": {"dim": [{"size": "1"}, {"size": "1"}, {"size": "384"}, {"size": "128"}]}}}, "dtype": {"type": "DT_FLOAT"}}}, {"name": "86865", "op": "Const", "attr": {"dtype": {"type": "DT_FLOAT"}, "value": {"tensor": {"dtype": "DT_FLOAT", "tensorShape": {"dim": [{"size": "128"}]}}}}}, {"name": "86867", "op": "Const", "attr": {"dtype": {"type": "DT_INT64"}, "value": {"tensor": {"dtype": "DT_INT64", "tensorShape": {"dim": [{"size": "4"}]}}}}}, {"name": "86869", "op": "Const", "attr": {"value": {"tensor": {"dtype": "DT_INT64", "tensorShape": {"dim": [{"size": "4"}]}}}, "dtype": {"type": "DT_INT64"}}}, {"name": "PartitionedCall/model_63/tf.strided_slice_89/ones_like", "op": "Const", "attr": {"dtype": {"type": "DT_INT64"}, "value": {"tensor": {"dtype": "DT_INT64", "tensorShape": {"dim": [{"size": "4"}]}}}}}, {"name": "86871", "op": "Const", "attr": {"value": {"tensor": {"dtype": "DT_FLOAT", "tensorShape": {"dim": [{"size": "3"}, {"size": "3"}, {"size": "64"}, {"size": "64"}]}}}, "dtype": {"type": "DT_FLOAT"}}}, {"name": "86873", "op": "Const", "attr": {"dtype": {"type": "DT_FLOAT"}, "value": {"tensor": {"dtype": "DT_FLOAT", "tensorShape": {"dim": [{"size": "64"}]}}}}}, {"name": "86875", "op": "Const", "attr": {"value": {"tensor": {"dtype": "DT_FLOAT", "tensorShape": {"dim": [{"size": "3"}, {"size": "3"}, {"size": "64"}, {"size": "64"}]}}}, "dtype": {"type": "DT_FLOAT"}}}, {"name": "86877", "op": "Const", "attr": {"dtype": {"type": "DT_FLOAT"}, "value": {"tensor": {"dtype": "DT_FLOAT", "tensorShape": {"dim": [{"size": "64"}]}}}}}, {"name": "PartitionedCall/model_63/tf.concat_86/concat/axis", "op": "Const", "attr": {"dtype": {"type": "DT_INT32"}, "value": {"tensor": {"dtype": "DT_INT32", "tensorShape": {}}}}}, {"name": "86883", "op": "Const", "attr": {"value": {"tensor": {"dtype": "DT_FLOAT", "tensorShape": {"dim": [{"size": "1"}, {"size": "1"}, {"size": "192"}, {"size": "128"}]}}}, "dtype": {"type": "DT_FLOAT"}}}, {"name": "86885", "op": "Const", "attr": {"value": {"tensor": {"dtype": "DT_FLOAT", "tensorShape": {"dim": [{"size": "128"}]}}}, "dtype": {"type": "DT_FLOAT"}}}, {"name": "PartitionedCall/model_63/tf.concat_89/concat/axis", "op": "Const", "attr": {"value": {"tensor": {"dtype": "DT_INT32", "tensorShape": {}}}, "dtype": {"type": "DT_INT32"}}}, {"name": "86917", "op": "Const", "attr": {"value": {"tensor": {"dtype": "DT_FLOAT", "tensorShape": {"dim": [{"size": "1"}, {"size": "1"}, {"size": "192"}, {"size": "128"}]}}}, "dtype": {"type": "DT_FLOAT"}}}, {"name": "86919", "op": "Const", "attr": {"value": {"tensor": {"dtype": "DT_FLOAT", "tensorShape": {"dim": [{"size": "128"}]}}}, "dtype": {"type": "DT_FLOAT"}}}, {"name": "86921", "op": "Const", "attr": {"value": {"tensor": {"dtype": "DT_INT64", "tensorShape": {"dim": [{"size": "4"}]}}}, "dtype": {"type": "DT_INT64"}}}, {"name": "86923", "op": "Const", "attr": {"value": {"tensor": {"dtype": "DT_INT64", "tensorShape": {"dim": [{"size": "4"}]}}}, "dtype": {"type": "DT_INT64"}}}, {"name": "PartitionedCall/model_63/tf.strided_slice_93/ones_like", "op": "Const", "attr": {"value": {"tensor": {"dtype": "DT_INT64", "tensorShape": {"dim": [{"size": "4"}]}}}, "dtype": {"type": "DT_INT64"}}}, {"name": "86925", "op": "Const", "attr": {"dtype": {"type": "DT_FLOAT"}, "value": {"tensor": {"dtype": "DT_FLOAT", "tensorShape": {"dim": [{"size": "3"}, {"size": "3"}, {"size": "64"}, {"size": "64"}]}}}}}, {"name": "86927", "op": "Const", "attr": {"value": {"tensor": {"dtype": "DT_FLOAT", "tensorShape": {"dim": [{"size": "64"}]}}}, "dtype": {"type": "DT_FLOAT"}}}, {"name": "86929", "op": "Const", "attr": {"value": {"tensor": {"dtype": "DT_FLOAT", "tensorShape": {"dim": [{"size": "3"}, {"size": "3"}, {"size": "64"}, {"size": "64"}]}}}, "dtype": {"type": "DT_FLOAT"}}}, {"name": "86931", "op": "Const", "attr": {"value": {"tensor": {"dtype": "DT_FLOAT", "tensorShape": {"dim": [{"size": "64"}]}}}, "dtype": {"type": "DT_FLOAT"}}}, {"name": "PartitionedCall/model_63/tf.concat_91/concat/axis", "op": "Const", "attr": {"dtype": {"type": "DT_INT32"}, "value": {"tensor": {"dtype": "DT_INT32", "tensorShape": {}}}}}, {"name": "86937", "op": "Const", "attr": {"dtype": {"type": "DT_FLOAT"}, "value": {"tensor": {"dtype": "DT_FLOAT", "tensorShape": {"dim": [{"size": "1"}, {"size": "1"}, {"size": "192"}, {"size": "128"}]}}}}}, {"name": "86939", "op": "Const", "attr": {"dtype": {"type": "DT_FLOAT"}, "value": {"tensor": {"dtype": "DT_FLOAT", "tensorShape": {"dim": [{"size": "128"}]}}}}}, {"name": "86941", "op": "Const", "attr": {"value": {"tensor": {"dtype": "DT_INT32", "tensorShape": {"dim": [{"size": "4"}, {"size": "2"}]}}}, "dtype": {"type": "DT_INT32"}}}, {"name": "86943", "op": "Const", "attr": {"dtype": {"type": "DT_FLOAT"}, "value": {"tensor": {"dtype": "DT_FLOAT", "tensorShape": {"dim": [{"size": "3"}, {"size": "3"}, {"size": "128"}, {"size": "128"}]}}}}}, {"name": "86945", "op": "Const", "attr": {"value": {"tensor": {"dtype": "DT_FLOAT", "tensorShape": {"dim": [{"size": "128"}]}}}, "dtype": {"type": "DT_FLOAT"}}}, {"name": "86847", "op": "Const", "attr": {"value": {"tensor": {"dtype": "DT_INT64", "tensorShape": {"dim": [{"size": "4"}]}}}, "dtype": {"type": "DT_INT64"}}}, {"name": "86849", "op": "Const", "attr": {"value": {"tensor": {"dtype": "DT_INT64", "tensorShape": {"dim": [{"size": "4"}]}}}, "dtype": {"type": "DT_INT64"}}}, {"name": "PartitionedCall/model_63/tf.strided_slice_86/ones_like", "op": "Const", "attr": {"value": {"tensor": {"dtype": "DT_INT64", "tensorShape": {"dim": [{"size": "4"}]}}}, "dtype": {"type": "DT_INT64"}}}, {"name": "86817", "op": "Const", "attr": {"value": {"tensor": {"dtype": "DT_INT64", "tensorShape": {"dim": [{"size": "4"}]}}}, "dtype": {"type": "DT_INT64"}}}, {"name": "86819", "op": "Const", "attr": {"value": {"tensor": {"dtype": "DT_INT64", "tensorShape": {"dim": [{"size": "4"}]}}}, "dtype": {"type": "DT_INT64"}}}, {"name": "PartitionedCall/model_63/tf.strided_slice_84/ones_like", "op": "Const", "attr": {"dtype": {"type": "DT_INT64"}, "value": {"tensor": {"dtype": "DT_INT64", "tensorShape": {"dim": [{"size": "4"}]}}}}}, {"name": "86779", "op": "Const", "attr": {"dtype": {"type": "DT_INT64"}, "value": {"tensor": {"dtype": "DT_INT64", "tensorShape": {"dim": [{"size": "4"}]}}}}}, {"name": "86781", "op": "Const", "attr": {"value": {"tensor": {"dtype": "DT_INT64", "tensorShape": {"dim": [{"size": "4"}]}}}, "dtype": {"type": "DT_INT64"}}}, {"name": "PartitionedCall/model_63/tf.strided_slice_82/ones_like", "op": "Const", "attr": {"dtype": {"type": "DT_INT64"}, "value": {"tensor": {"dtype": "DT_INT64", "tensorShape": {"dim": [{"size": "4"}]}}}}}, {"name": "86741", "op": "Const", "attr": {"dtype": {"type": "DT_INT64"}, "value": {"tensor": {"dtype": "DT_INT64", "tensorShape": {"dim": [{"size": "4"}]}}}}}, {"name": "86743", "op": "Const", "attr": {"value": {"tensor": {"dtype": "DT_INT64", "tensorShape": {"dim": [{"size": "4"}]}}}, "dtype": {"type": "DT_INT64"}}}, {"name": "PartitionedCall/model_63/tf.strided_slice_80/ones_like", "op": "Const", "attr": {"dtype": {"type": "DT_INT64"}, "value": {"tensor": {"dtype": "DT_INT64", "tensorShape": {"dim": [{"size": "4"}]}}}}}, {"name": "86713", "op": "Const", "attr": {"dtype": {"type": "DT_INT32"}, "value": {"tensor": {"dtype": "DT_INT32", "tensorShape": {"dim": [{"size": "4"}, {"size": "2"}]}}}}}, {"name": "86715", "op": "Const", "attr": {"value": {"tensor": {"dtype": "DT_FLOAT", "tensorShape": {"dim": [{"size": "3"}, {"size": "3"}, {"size": "3"}, {"size": "16"}]}}}, "dtype": {"type": "DT_FLOAT"}}}, {"name": "86717", "op": "Const", "attr": {"dtype": {"type": "DT_FLOAT"}, "value": {"tensor": {"dtype": "DT_FLOAT", "tensorShape": {"dim": [{"size": "16"}]}}}}}, {"name": "86719", "op": "Const", "attr": {"value": {"tensor": {"dtype": "DT_INT32", "tensorShape": {"dim": [{"size": "4"}, {"size": "2"}]}}}, "dtype": {"type": "DT_INT32"}}}, {"name": "86721", "op": "Const", "attr": {"dtype": {"type": "DT_FLOAT"}, "value": {"tensor": {"dtype": "DT_FLOAT", "tensorShape": {"dim": [{"size": "3"}, {"size": "3"}, {"size": "16"}, {"size": "32"}]}}}}}, {"name": "86723", "op": "Const", "attr": {"value": {"tensor": {"dtype": "DT_FLOAT", "tensorShape": {"dim": [{"size": "32"}]}}}, "dtype": {"type": "DT_FLOAT"}}}, {"name": "86725", "op": "Const", "attr": {"value": {"tensor": {"dtype": "DT_FLOAT", "tensorShape": {"dim": [{"size": "1"}, {"size": "1"}, {"size": "32"}, {"size": "32"}]}}}, "dtype": {"type": "DT_FLOAT"}}}, {"name": "86727", "op": "Const", "attr": {"value": {"tensor": {"dtype": "DT_FLOAT", "tensorShape": {"dim": [{"size": "32"}]}}}, "dtype": {"type": "DT_FLOAT"}}}, {"name": "86729", "op": "Const", "attr": {"dtype": {"type": "DT_INT64"}, "value": {"tensor": {"dtype": "DT_INT64", "tensorShape": {"dim": [{"size": "4"}]}}}}}, {"name": "86731", "op": "Const", "attr": {"dtype": {"type": "DT_INT64"}, "value": {"tensor": {"dtype": "DT_INT64", "tensorShape": {"dim": [{"size": "4"}]}}}}}, {"name": "PartitionedCall/model_63/tf.strided_slice_81/ones_like", "op": "Const", "attr": {"value": {"tensor": {"dtype": "DT_INT64", "tensorShape": {"dim": [{"size": "4"}]}}}, "dtype": {"type": "DT_INT64"}}}, {"name": "86733", "op": "Const", "attr": {"dtype": {"type": "DT_FLOAT"}, "value": {"tensor": {"dtype": "DT_FLOAT", "tensorShape": {"dim": [{"size": "3"}, {"size": "3"}, {"size": "16"}, {"size": "16"}]}}}}}, {"name": "86735", "op": "Const", "attr": {"value": {"tensor": {"dtype": "DT_FLOAT", "tensorShape": {"dim": [{"size": "16"}]}}}, "dtype": {"type": "DT_FLOAT"}}}, {"name": "86737", "op": "Const", "attr": {"dtype": {"type": "DT_FLOAT"}, "value": {"tensor": {"dtype": "DT_FLOAT", "tensorShape": {"dim": [{"size": "3"}, {"size": "3"}, {"size": "16"}, {"size": "16"}]}}}}}, {"name": "86739", "op": "Const", "attr": {"dtype": {"type": "DT_FLOAT"}, "value": {"tensor": {"dtype": "DT_FLOAT", "tensorShape": {"dim": [{"size": "16"}]}}}}}, {"name": "PartitionedCall/model_63/tf.concat_80/concat/axis", "op": "Const", "attr": {"value": {"tensor": {"dtype": "DT_INT32", "tensorShape": {}}}, "dtype": {"type": "DT_INT32"}}}, {"name": "86745", "op": "Const", "attr": {"dtype": {"type": "DT_FLOAT"}, "value": {"tensor": {"dtype": "DT_FLOAT", "tensorShape": {"dim": [{"size": "1"}, {"size": "1"}, {"size": "48"}, {"size": "32"}]}}}}}, {"name": "86747", "op": "Const", "attr": {"value": {"tensor": {"dtype": "DT_FLOAT", "tensorShape": {"dim": [{"size": "32"}]}}}, "dtype": {"type": "DT_FLOAT"}}}, {"name": "86749", "op": "Const", "attr": {"value": {"tensor": {"dtype": "DT_INT32", "tensorShape": {"dim": [{"size": "4"}, {"size": "2"}]}}}, "dtype": {"type": "DT_INT32"}}}, {"name": "86751", "op": "Const", "attr": {"dtype": {"type": "DT_FLOAT"}, "value": {"tensor": {"dtype": "DT_FLOAT", "tensorShape": {"dim": [{"size": "3"}, {"size": "3"}, {"size": "32"}, {"size": "64"}]}}}}}, {"name": "86753", "op": "Const", "attr": {"dtype": {"type": "DT_FLOAT"}, "value": {"tensor": {"dtype": "DT_FLOAT", "tensorShape": {"dim": [{"size": "64"}]}}}}}, {"name": "86755", "op": "Const", "attr": {"value": {"tensor": {"dtype": "DT_FLOAT", "tensorShape": {"dim": [{"size": "1"}, {"size": "1"}, {"size": "64"}, {"size": "64"}]}}}, "dtype": {"type": "DT_FLOAT"}}}, {"name": "86757", "op": "Const", "attr": {"dtype": {"type": "DT_FLOAT"}, "value": {"tensor": {"dtype": "DT_FLOAT", "tensorShape": {"dim": [{"size": "64"}]}}}}}, {"name": "86759", "op": "Const", "attr": {"dtype": {"type": "DT_INT64"}, "value": {"tensor": {"dtype": "DT_INT64", "tensorShape": {"dim": [{"size": "4"}]}}}}}, {"name": "86761", "op": "Const", "attr": {"dtype": {"type": "DT_INT64"}, "value": {"tensor": {"dtype": "DT_INT64", "tensorShape": {"dim": [{"size": "4"}]}}}}}, {"name": "PartitionedCall/model_63/tf.strided_slice_83/ones_like", "op": "Const", "attr": {"dtype": {"type": "DT_INT64"}, "value": {"tensor": {"dtype": "DT_INT64", "tensorShape": {"dim": [{"size": "4"}]}}}}}, {"name": "86763", "op": "Const", "attr": {"value": {"tensor": {"dtype": "DT_FLOAT", "tensorShape": {"dim": [{"size": "3"}, {"size": "3"}, {"size": "32"}, {"size": "32"}]}}}, "dtype": {"type": "DT_FLOAT"}}}, {"name": "86765", "op": "Const", "attr": {"value": {"tensor": {"dtype": "DT_FLOAT", "tensorShape": {"dim": [{"size": "32"}]}}}, "dtype": {"type": "DT_FLOAT"}}}, {"name": "86767", "op": "Const", "attr": {"value": {"tensor": {"dtype": "DT_FLOAT", "tensorShape": {"dim": [{"size": "3"}, {"size": "3"}, {"size": "32"}, {"size": "32"}]}}}, "dtype": {"type": "DT_FLOAT"}}}, {"name": "86769", "op": "Const", "attr": {"value": {"tensor": {"dtype": "DT_FLOAT", "tensorShape": {"dim": [{"size": "32"}]}}}, "dtype": {"type": "DT_FLOAT"}}}, {"name": "86771", "op": "Const", "attr": {"value": {"tensor": {"dtype": "DT_FLOAT", "tensorShape": {"dim": [{"size": "3"}, {"size": "3"}, {"size": "32"}, {"size": "32"}]}}}, "dtype": {"type": "DT_FLOAT"}}}, {"name": "86773", "op": "Const", "attr": {"dtype": {"type": "DT_FLOAT"}, "value": {"tensor": {"dtype": "DT_FLOAT", "tensorShape": {"dim": [{"size": "32"}]}}}}}, {"name": "86775", "op": "Const", "attr": {"value": {"tensor": {"dtype": "DT_FLOAT", "tensorShape": {"dim": [{"size": "3"}, {"size": "3"}, {"size": "32"}, {"size": "32"}]}}}, "dtype": {"type": "DT_FLOAT"}}}, {"name": "86777", "op": "Const", "attr": {"value": {"tensor": {"dtype": "DT_FLOAT", "tensorShape": {"dim": [{"size": "32"}]}}}, "dtype": {"type": "DT_FLOAT"}}}, {"name": "PartitionedCall/model_63/tf.concat_81/concat/axis", "op": "Const", "attr": {"value": {"tensor": {"dtype": "DT_INT32", "tensorShape": {}}}, "dtype": {"type": "DT_INT32"}}}, {"name": "86783", "op": "Const", "attr": {"value": {"tensor": {"dtype": "DT_FLOAT", "tensorShape": {"dim": [{"size": "1"}, {"size": "1"}, {"size": "128"}, {"size": "64"}]}}}, "dtype": {"type": "DT_FLOAT"}}}, {"name": "86785", "op": "Const", "attr": {"value": {"tensor": {"dtype": "DT_FLOAT", "tensorShape": {"dim": [{"size": "64"}]}}}, "dtype": {"type": "DT_FLOAT"}}}, {"name": "86787", "op": "Const", "attr": {"value": {"tensor": {"dtype": "DT_INT32", "tensorShape": {"dim": [{"size": "4"}, {"size": "2"}]}}}, "dtype": {"type": "DT_INT32"}}}, {"name": "86789", "op": "Const", "attr": {"value": {"tensor": {"dtype": "DT_FLOAT", "tensorShape": {"dim": [{"size": "3"}, {"size": "3"}, {"size": "64"}, {"size": "128"}]}}}, "dtype": {"type": "DT_FLOAT"}}}, {"name": "86791", "op": "Const", "attr": {"value": {"tensor": {"dtype": "DT_FLOAT", "tensorShape": {"dim": [{"size": "128"}]}}}, "dtype": {"type": "DT_FLOAT"}}}, {"name": "86793", "op": "Const", "attr": {"value": {"tensor": {"dtype": "DT_FLOAT", "tensorShape": {"dim": [{"size": "1"}, {"size": "1"}, {"size": "128"}, {"size": "128"}]}}}, "dtype": {"type": "DT_FLOAT"}}}, {"name": "86795", "op": "Const", "attr": {"dtype": {"type": "DT_FLOAT"}, "value": {"tensor": {"dtype": "DT_FLOAT", "tensorShape": {"dim": [{"size": "128"}]}}}}}, {"name": "86797", "op": "Const", "attr": {"value": {"tensor": {"dtype": "DT_INT64", "tensorShape": {"dim": [{"size": "4"}]}}}, "dtype": {"type": "DT_INT64"}}}, {"name": "86799", "op": "Const", "attr": {"value": {"tensor": {"dtype": "DT_INT64", "tensorShape": {"dim": [{"size": "4"}]}}}, "dtype": {"type": "DT_INT64"}}}, {"name": "PartitionedCall/model_63/tf.strided_slice_85/ones_like", "op": "Const", "attr": {"value": {"tensor": {"dtype": "DT_INT64", "tensorShape": {"dim": [{"size": "4"}]}}}, "dtype": {"type": "DT_INT64"}}}, {"name": "86801", "op": "Const", "attr": {"value": {"tensor": {"dtype": "DT_FLOAT", "tensorShape": {"dim": [{"size": "3"}, {"size": "3"}, {"size": "64"}, {"size": "64"}]}}}, "dtype": {"type": "DT_FLOAT"}}}, {"name": "86803", "op": "Const", "attr": {"dtype": {"type": "DT_FLOAT"}, "value": {"tensor": {"dtype": "DT_FLOAT", "tensorShape": {"dim": [{"size": "64"}]}}}}}, {"name": "86805", "op": "Const", "attr": {"dtype": {"type": "DT_FLOAT"}, "value": {"tensor": {"dtype": "DT_FLOAT", "tensorShape": {"dim": [{"size": "3"}, {"size": "3"}, {"size": "64"}, {"size": "64"}]}}}}}, {"name": "86807", "op": "Const", "attr": {"value": {"tensor": {"dtype": "DT_FLOAT", "tensorShape": {"dim": [{"size": "64"}]}}}, "dtype": {"type": "DT_FLOAT"}}}, {"name": "86809", "op": "Const", "attr": {"dtype": {"type": "DT_FLOAT"}, "value": {"tensor": {"dtype": "DT_FLOAT", "tensorShape": {"dim": [{"size": "3"}, {"size": "3"}, {"size": "64"}, {"size": "64"}]}}}}}, {"name": "86811", "op": "Const", "attr": {"dtype": {"type": "DT_FLOAT"}, "value": {"tensor": {"dtype": "DT_FLOAT", "tensorShape": {"dim": [{"size": "64"}]}}}}}, {"name": "86813", "op": "Const", "attr": {"value": {"tensor": {"dtype": "DT_FLOAT", "tensorShape": {"dim": [{"size": "3"}, {"size": "3"}, {"size": "64"}, {"size": "64"}]}}}, "dtype": {"type": "DT_FLOAT"}}}, {"name": "86815", "op": "Const", "attr": {"value": {"tensor": {"dtype": "DT_FLOAT", "tensorShape": {"dim": [{"size": "64"}]}}}, "dtype": {"type": "DT_FLOAT"}}}, {"name": "PartitionedCall/model_63/tf.concat_82/concat/axis", "op": "Const", "attr": {"dtype": {"type": "DT_INT32"}, "value": {"tensor": {"dtype": "DT_INT32", "tensorShape": {}}}}}, {"name": "86821", "op": "Const", "attr": {"value": {"tensor": {"dtype": "DT_FLOAT", "tensorShape": {"dim": [{"size": "1"}, {"size": "1"}, {"size": "256"}, {"size": "128"}]}}}, "dtype": {"type": "DT_FLOAT"}}}, {"name": "86823", "op": "Const", "attr": {"value": {"tensor": {"dtype": "DT_FLOAT", "tensorShape": {"dim": [{"size": "128"}]}}}, "dtype": {"type": "DT_FLOAT"}}}, {"name": "86825", "op": "Const", "attr": {"value": {"tensor": {"dtype": "DT_INT32", "tensorShape": {"dim": [{"size": "4"}, {"size": "2"}]}}}, "dtype": {"type": "DT_INT32"}}}, {"name": "86827", "op": "Const", "attr": {"value": {"tensor": {"dtype": "DT_FLOAT", "tensorShape": {"dim": [{"size": "3"}, {"size": "3"}, {"size": "128"}, {"size": "256"}]}}}, "dtype": {"type": "DT_FLOAT"}}}, {"name": "86829", "op": "Const", "attr": {"value": {"tensor": {"dtype": "DT_FLOAT", "tensorShape": {"dim": [{"size": "256"}]}}}, "dtype": {"type": "DT_FLOAT"}}}, {"name": "86831", "op": "Const", "attr": {"value": {"tensor": {"dtype": "DT_FLOAT", "tensorShape": {"dim": [{"size": "1"}, {"size": "1"}, {"size": "256"}, {"size": "256"}]}}}, "dtype": {"type": "DT_FLOAT"}}}, {"name": "86833", "op": "Const", "attr": {"dtype": {"type": "DT_FLOAT"}, "value": {"tensor": {"dtype": "DT_FLOAT", "tensorShape": {"dim": [{"size": "256"}]}}}}}, {"name": "86835", "op": "Const", "attr": {"dtype": {"type": "DT_INT64"}, "value": {"tensor": {"dtype": "DT_INT64", "tensorShape": {"dim": [{"size": "4"}]}}}}}, {"name": "86837", "op": "Const", "attr": {"value": {"tensor": {"dtype": "DT_INT64", "tensorShape": {"dim": [{"size": "4"}]}}}, "dtype": {"type": "DT_INT64"}}}, {"name": "PartitionedCall/model_63/tf.strided_slice_87/ones_like", "op": "Const", "attr": {"dtype": {"type": "DT_INT64"}, "value": {"tensor": {"dtype": "DT_INT64", "tensorShape": {"dim": [{"size": "4"}]}}}}}, {"name": "86839", "op": "Const", "attr": {"dtype": {"type": "DT_FLOAT"}, "value": {"tensor": {"dtype": "DT_FLOAT", "tensorShape": {"dim": [{"size": "3"}, {"size": "3"}, {"size": "128"}, {"size": "128"}]}}}}}, {"name": "86841", "op": "Const", "attr": {"dtype": {"type": "DT_FLOAT"}, "value": {"tensor": {"dtype": "DT_FLOAT", "tensorShape": {"dim": [{"size": "128"}]}}}}}, {"name": "86843", "op": "Const", "attr": {"value": {"tensor": {"dtype": "DT_FLOAT", "tensorShape": {"dim": [{"size": "3"}, {"size": "3"}, {"size": "128"}, {"size": "128"}]}}}, "dtype": {"type": "DT_FLOAT"}}}, {"name": "86845", "op": "Const", "attr": {"dtype": {"type": "DT_FLOAT"}, "value": {"tensor": {"dtype": "DT_FLOAT", "tensorShape": {"dim": [{"size": "128"}]}}}}}, {"name": "PartitionedCall/model_63/tf.concat_83/concat/axis", "op": "Const", "attr": {"value": {"tensor": {"dtype": "DT_INT32", "tensorShape": {}}}, "dtype": {"type": "DT_INT32"}}}, {"name": "86851", "op": "Const", "attr": {"dtype": {"type": "DT_FLOAT"}, "value": {"tensor": {"dtype": "DT_FLOAT", "tensorShape": {"dim": [{"size": "1"}, {"size": "1"}, {"size": "384"}, {"size": "256"}]}}}}}, {"name": "86853", "op": "Const", "attr": {"dtype": {"type": "DT_FLOAT"}, "value": {"tensor": {"dtype": "DT_FLOAT", "tensorShape": {"dim": [{"size": "256"}]}}}}}, {"name": "86855", "op": "Const", "attr": {"value": {"tensor": {"dtype": "DT_FLOAT", "tensorShape": {"dim": [{"size": "1"}, {"size": "1"}, {"size": "256"}, {"size": "128"}]}}}, "dtype": {"type": "DT_FLOAT"}}}, {"name": "86857", "op": "Const", "attr": {"value": {"tensor": {"dtype": "DT_FLOAT", "tensorShape": {"dim": [{"size": "128"}]}}}, "dtype": {"type": "DT_FLOAT"}}}, {"name": "PartitionedCall/model_63/tf.concat_84/concat/axis", "op": "Const", "attr": {"dtype": {"type": "DT_INT32"}, "value": {"tensor": {"dtype": "DT_INT32", "tensorShape": {}}}}}, {"name": "86859", "op": "Const", "attr": {"value": {"tensor": {"dtype": "DT_FLOAT", "tensorShape": {"dim": [{"size": "1"}, {"size": "1"}, {"size": "512"}, {"size": "256"}]}}}, "dtype": {"type": "DT_FLOAT"}}}, {"name": "86861", "op": "Const", "attr": {"dtype": {"type": "DT_FLOAT"}, "value": {"tensor": {"dtype": "DT_FLOAT", "tensorShape": {"dim": [{"size": "256"}]}}}}}, {"name": "PartitionedCall/model_63/tf.concat_92/concat/axis", "op": "Const", "attr": {"value": {"tensor": {"dtype": "DT_INT32", "tensorShape": {}}}, "dtype": {"type": "DT_INT32"}}}, {"name": "86947", "op": "Const", "attr": {"dtype": {"type": "DT_FLOAT"}, "value": {"tensor": {"dtype": "DT_FLOAT", "tensorShape": {"dim": [{"size": "1"}, {"size": "1"}, {"size": "384"}, {"size": "256"}]}}}}}, {"name": "86949", "op": "Const", "attr": {"value": {"tensor": {"dtype": "DT_FLOAT", "tensorShape": {"dim": [{"size": "256"}]}}}, "dtype": {"type": "DT_FLOAT"}}}, {"name": "86951", "op": "Const", "attr": {"dtype": {"type": "DT_INT64"}, "value": {"tensor": {"dtype": "DT_INT64", "tensorShape": {"dim": [{"size": "4"}]}}}}}, {"name": "86953", "op": "Const", "attr": {"dtype": {"type": "DT_INT64"}, "value": {"tensor": {"dtype": "DT_INT64", "tensorShape": {"dim": [{"size": "4"}]}}}}}, {"name": "PartitionedCall/model_63/tf.strided_slice_95/ones_like", "op": "Const", "attr": {"value": {"tensor": {"dtype": "DT_INT64", "tensorShape": {"dim": [{"size": "4"}]}}}, "dtype": {"type": "DT_INT64"}}}, {"name": "86955", "op": "Const", "attr": {"value": {"tensor": {"dtype": "DT_FLOAT", "tensorShape": {"dim": [{"size": "3"}, {"size": "3"}, {"size": "128"}, {"size": "128"}]}}}, "dtype": {"type": "DT_FLOAT"}}}, {"name": "86957", "op": "Const", "attr": {"value": {"tensor": {"dtype": "DT_FLOAT", "tensorShape": {"dim": [{"size": "128"}]}}}, "dtype": {"type": "DT_FLOAT"}}}, {"name": "86959", "op": "Const", "attr": {"dtype": {"type": "DT_FLOAT"}, "value": {"tensor": {"dtype": "DT_FLOAT", "tensorShape": {"dim": [{"size": "3"}, {"size": "3"}, {"size": "128"}, {"size": "128"}]}}}}}, {"name": "86961", "op": "Const", "attr": {"value": {"tensor": {"dtype": "DT_FLOAT", "tensorShape": {"dim": [{"size": "128"}]}}}, "dtype": {"type": "DT_FLOAT"}}}, {"name": "PartitionedCall/model_63/tf.concat_94/concat/axis", "op": "Const", "attr": {"value": {"tensor": {"dtype": "DT_INT32", "tensorShape": {}}}, "dtype": {"type": "DT_INT32"}}}, {"name": "86967", "op": "Const", "attr": {"value": {"tensor": {"dtype": "DT_FLOAT", "tensorShape": {"dim": [{"size": "1"}, {"size": "1"}, {"size": "384"}, {"size": "256"}]}}}, "dtype": {"type": "DT_FLOAT"}}}, {"name": "86969", "op": "Const", "attr": {"dtype": {"type": "DT_FLOAT"}, "value": {"tensor": {"dtype": "DT_FLOAT", "tensorShape": {"dim": [{"size": "256"}]}}}}}, {"name": "86971", "op": "Const", "attr": {"value": {"tensor": {"dtype": "DT_FLOAT", "tensorShape": {"dim": [{"size": "3"}, {"size": "3"}, {"size": "256"}, {"size": "80"}]}}}, "dtype": {"type": "DT_FLOAT"}}}, {"name": "86983", "op": "Const", "attr": {"dtype": {"type": "DT_FLOAT"}, "value": {"tensor": {"dtype": "DT_FLOAT", "tensorShape": {"dim": [{"size": "80"}]}}}}}, {"name": "86995", "op": "Const", "attr": {"dtype": {"type": "DT_FLOAT"}, "value": {"tensor": {"dtype": "DT_FLOAT", "tensorShape": {"dim": [{"size": "3"}, {"size": "3"}, {"size": "80"}, {"size": "80"}]}}}}}, {"name": "87007", "op": "Const", "attr": {"value": {"tensor": {"dtype": "DT_FLOAT", "tensorShape": {"dim": [{"size": "80"}]}}}, "dtype": {"type": "DT_FLOAT"}}}, {"name": "87019", "op": "Const", "attr": {"dtype": {"type": "DT_FLOAT"}, "value": {"tensor": {"dtype": "DT_FLOAT", "tensorShape": {"dim": [{"size": "1"}, {"size": "1"}, {"size": "80"}, {"size": "80"}]}}}}}, {"name": "87033", "op": "Const", "attr": {"dtype": {"type": "DT_FLOAT"}, "value": {"tensor": {"dtype": "DT_FLOAT", "tensorShape": {"dim": [{"size": "80"}]}}}}}, {"name": "PartitionedCall/model_63/tf.concat_95/concat/axis", "op": "Const", "attr": {"dtype": {"type": "DT_INT32"}, "value": {"tensor": {"dtype": "DT_INT32", "tensorShape": {}}}}}, {"name": "PartitionedCall/model_63/tf.compat.v1.transpose_124/transpose/perm", "op": "Const", "attr": {"dtype": {"type": "DT_INT32"}, "value": {"tensor": {"dtype": "DT_INT32", "tensorShape": {"dim": [{"size": "4"}]}}}}}, {"name": "PartitionedCall/model_63/tf.reshape_68/Reshape/shape", "op": "Const", "attr": {"dtype": {"type": "DT_INT32"}, "value": {"tensor": {"dtype": "DT_INT32", "tensorShape": {"dim": [{"size": "3"}]}}}}}, {"name": "PartitionedCall/model_63/tf.concat_96/concat/axis", "op": "Const", "attr": {"value": {"tensor": {"dtype": "DT_INT32", "tensorShape": {}}}, "dtype": {"type": "DT_INT32"}}}, {"name": "87063", "op": "Const", "attr": {"value": {"tensor": {"dtype": "DT_INT64", "tensorShape": {"dim": [{"size": "3"}]}}}, "dtype": {"type": "DT_INT64"}}}, {"name": "87065", "op": "Const", "attr": {"dtype": {"type": "DT_INT64"}, "value": {"tensor": {"dtype": "DT_INT64", "tensorShape": {"dim": [{"size": "3"}]}}}}}, {"name": "PartitionedCall/model_63/tf.strided_slice_97/StridedSlice/strides", "op": "Const", "attr": {"value": {"tensor": {"dtype": "DT_INT64", "tensorShape": {"dim": [{"size": "3"}]}}}, "dtype": {"type": "DT_INT64"}}}, {"name": "PartitionedCall/model_63/output0/concat/axis", "op": "Const", "attr": {"dtype": {"type": "DT_INT32"}, "value": {"tensor": {"dtype": "DT_INT32", "tensorShape": {}}}}}, {"name": "x", "op": "Placeholder", "attr": {"shape": {"shape": {"dim": [{"size": "1"}, {"size": "800"}, {"size": "800"}, {"size": "3"}]}}, "dtype": {"type": "DT_FLOAT"}}}, {"name": "PartitionedCall/model_63/tf.compat.v1.pad_28/Pad", "op": "Pad", "input": ["x", "86713"], "attr": {"Tpaddings": {"type": "DT_INT32"}, "T": {"type": "DT_FLOAT"}}}, {"name": "PartitionedCall/model_63/tf.math.add_308/Add", "op": "_FusedConv2D", "input": ["PartitionedCall/model_63/tf.compat.v1.pad_28/Pad", "86715", "86717"], "device": "/device:CPU:0", "attr": {"strides": {"list": {"i": ["1", "2", "2", "1"]}}, "epsilon": {"f": 0.0}, "leakyrelu_alpha": {"f": 0.2}, "padding": {"s": "VkFMSUQ="}, "num_args": {"i": "1"}, "explicit_paddings": {"list": {}}, "use_cudnn_on_gpu": {"b": true}, "dilations": {"list": {"i": ["1", "1", "1", "1"]}}, "data_format": {"s": "TkhXQw=="}, "T": {"type": "DT_FLOAT"}, "fused_ops": {"list": {"s": ["Qmlhc0FkZA=="]}}, "num_host_args": {"i": "0"}, "filter_format": {"s": "SFdJTw=="}, "TArgs": {"list": {"type": ["DT_FLOAT"]}}}}, {"name": "PartitionedCall/model_63/tf.math.sigmoid_232/Sigmoid", "op": "Sigmoid", "input": ["PartitionedCall/model_63/tf.math.add_308/Add"], "attr": {"T": {"type": "DT_FLOAT"}}}, {"name": "PartitionedCall/model_63/tf.math.multiply_1017/Mul", "op": "Mul", "input": ["PartitionedCall/model_63/tf.math.add_308/Add", "PartitionedCall/model_63/tf.math.sigmoid_232/Sigmoid"], "attr": {"T": {"type": "DT_FLOAT"}}}, {"name": "PartitionedCall/model_63/tf.compat.v1.pad_29/Pad", "op": "Pad", "input": ["PartitionedCall/model_63/tf.math.multiply_1017/Mul", "86719"], "attr": {"Tpaddings": {"type": "DT_INT32"}, "T": {"type": "DT_FLOAT"}}}, {"name": "PartitionedCall/model_63/tf.math.add_309/Add", "op": "_FusedConv2D", "input": ["PartitionedCall/model_63/tf.compat.v1.pad_29/Pad", "86721", "86723"], "device": "/device:CPU:0", "attr": {"fused_ops": {"list": {"s": ["Qmlhc0FkZA=="]}}, "use_cudnn_on_gpu": {"b": true}, "explicit_paddings": {"list": {}}, "dilations": {"list": {"i": ["1", "1", "1", "1"]}}, "T": {"type": "DT_FLOAT"}, "strides": {"list": {"i": ["1", "2", "2", "1"]}}, "epsilon": {"f": 0.0}, "data_format": {"s": "TkhXQw=="}, "TArgs": {"list": {"type": ["DT_FLOAT"]}}, "num_args": {"i": "1"}, "leakyrelu_alpha": {"f": 0.2}, "num_host_args": {"i": "0"}, "padding": {"s": "VkFMSUQ="}, "filter_format": {"s": "SFdJTw=="}}}, {"name": "PartitionedCall/model_63/tf.math.sigmoid_233/Sigmoid", "op": "Sigmoid", "input": ["PartitionedCall/model_63/tf.math.add_309/Add"], "attr": {"T": {"type": "DT_FLOAT"}}}, {"name": "PartitionedCall/model_63/tf.math.multiply_1021/Mul", "op": "Mul", "input": ["PartitionedCall/model_63/tf.math.add_309/Add", "PartitionedCall/model_63/tf.math.sigmoid_233/Sigmoid"], "attr": {"T": {"type": "DT_FLOAT"}}}, {"name": "PartitionedCall/model_63/tf.math.add_310/Add", "op": "_FusedConv2D", "input": ["PartitionedCall/model_63/tf.math.multiply_1021/Mul", "86725", "86727"], "device": "/device:CPU:0", "attr": {"explicit_paddings": {"list": {}}, "leakyrelu_alpha": {"f": 0.2}, "filter_format": {"s": "SFdJTw=="}, "num_args": {"i": "1"}, "T": {"type": "DT_FLOAT"}, "epsilon": {"f": 0.0}, "use_cudnn_on_gpu": {"b": true}, "padding": {"s": "U0FNRQ=="}, "fused_ops": {"list": {"s": ["Qmlhc0FkZA=="]}}, "data_format": {"s": "TkhXQw=="}, "TArgs": {"list": {"type": ["DT_FLOAT"]}}, "dilations": {"list": {"i": ["1", "1", "1", "1"]}}, "strides": {"list": {"i": ["1", "1", "1", "1"]}}, "num_host_args": {"i": "0"}}}, {"name": "PartitionedCall/model_63/tf.math.sigmoid_234/Sigmoid", "op": "Sigmoid", "input": ["PartitionedCall/model_63/tf.math.add_310/Add"], "attr": {"T": {"type": "DT_FLOAT"}}}, {"name": "PartitionedCall/model_63/tf.math.multiply_1025/Mul", "op": "Mul", "input": ["PartitionedCall/model_63/tf.math.add_310/Add", "PartitionedCall/model_63/tf.math.sigmoid_234/Sigmoid"], "attr": {"T": {"type": "DT_FLOAT"}}}, {"name": "PartitionedCall/model_63/tf.strided_slice_80/StridedSlice", "op": "StridedSlice", "input": ["PartitionedCall/model_63/tf.math.multiply_1025/Mul", "86741", "86743", "PartitionedCall/model_63/tf.strided_slice_80/ones_like"], "attr": {"ellipsis_mask": {"i": "0"}, "new_axis_mask": {"i": "0"}, "Index": {"type": "DT_INT64"}, "shrink_axis_mask": {"i": "0"}, "begin_mask": {"i": "15"}, "end_mask": {"i": "7"}, "T": {"type": "DT_FLOAT"}}}, {"name": "PartitionedCall/model_63/tf.strided_slice_81/StridedSlice", "op": "StridedSlice", "input": ["PartitionedCall/model_63/tf.math.multiply_1025/Mul", "86729", "86731", "PartitionedCall/model_63/tf.strided_slice_81/ones_like"], "attr": {"T": {"type": "DT_FLOAT"}, "Index": {"type": "DT_INT64"}, "ellipsis_mask": {"i": "0"}, "end_mask": {"i": "7"}, "new_axis_mask": {"i": "0"}, "shrink_axis_mask": {"i": "0"}, "begin_mask": {"i": "7"}}}, {"name": "PartitionedCall/model_63/tf.math.add_311/Add", "op": "_FusedConv2D", "input": ["PartitionedCall/model_63/tf.strided_slice_81/StridedSlice", "86733", "86735"], "device": "/device:CPU:0", "attr": {"fused_ops": {"list": {"s": ["Qmlhc0FkZA=="]}}, "dilations": {"list": {"i": ["1", "1", "1", "1"]}}, "TArgs": {"list": {"type": ["DT_FLOAT"]}}, "data_format": {"s": "TkhXQw=="}, "num_host_args": {"i": "0"}, "explicit_paddings": {"list": {}}, "epsilon": {"f": 0.0}, "T": {"type": "DT_FLOAT"}, "filter_format": {"s": "SFdJTw=="}, "use_cudnn_on_gpu": {"b": true}, "num_args": {"i": "1"}, "strides": {"list": {"i": ["1", "1", "1", "1"]}}, "padding": {"s": "U0FNRQ=="}, "leakyrelu_alpha": {"f": 0.2}}}, {"name": "PartitionedCall/model_63/tf.math.sigmoid_235/Sigmoid", "op": "Sigmoid", "input": ["PartitionedCall/model_63/tf.math.add_311/Add"], "attr": {"T": {"type": "DT_FLOAT"}}}, {"name": "PartitionedCall/model_63/tf.math.multiply_1029/Mul", "op": "Mul", "input": ["PartitionedCall/model_63/tf.math.add_311/Add", "PartitionedCall/model_63/tf.math.sigmoid_235/Sigmoid"], "attr": {"T": {"type": "DT_FLOAT"}}}, {"name": "PartitionedCall/model_63/tf.math.add_312/Add", "op": "_FusedConv2D", "input": ["PartitionedCall/model_63/tf.math.multiply_1029/Mul", "86737", "86739"], "device": "/device:CPU:0", "attr": {"use_cudnn_on_gpu": {"b": true}, "TArgs": {"list": {"type": ["DT_FLOAT"]}}, "num_args": {"i": "1"}, "padding": {"s": "U0FNRQ=="}, "leakyrelu_alpha": {"f": 0.2}, "dilations": {"list": {"i": ["1", "1", "1", "1"]}}, "epsilon": {"f": 0.0}, "fused_ops": {"list": {"s": ["Qmlhc0FkZA=="]}}, "strides": {"list": {"i": ["1", "1", "1", "1"]}}, "filter_format": {"s": "SFdJTw=="}, "num_host_args": {"i": "0"}, "explicit_paddings": {"list": {}}, "data_format": {"s": "TkhXQw=="}, "T": {"type": "DT_FLOAT"}}}, {"name": "PartitionedCall/model_63/tf.math.sigmoid_236/Sigmoid", "op": "Sigmoid", "input": ["PartitionedCall/model_63/tf.math.add_312/Add"], "attr": {"T": {"type": "DT_FLOAT"}}}, {"name": "PartitionedCall/model_63/tf.math.multiply_1033/Mul", "op": "Mul", "input": ["PartitionedCall/model_63/tf.math.add_312/Add", "PartitionedCall/model_63/tf.math.sigmoid_236/Sigmoid"], "attr": {"T": {"type": "DT_FLOAT"}}}, {"name": "PartitionedCall/model_63/tf.math.add_314/Add", "op": "AddV2", "input": ["PartitionedCall/model_63/tf.strided_slice_81/StridedSlice", "PartitionedCall/model_63/tf.math.multiply_1033/Mul"], "attr": {"T": {"type": "DT_FLOAT"}}}, {"name": "PartitionedCall/model_63/tf.concat_80/concat", "op": "ConcatV2", "input": ["PartitionedCall/model_63/tf.strided_slice_80/StridedSlice", "PartitionedCall/model_63/tf.strided_slice_81/StridedSlice", "PartitionedCall/model_63/tf.math.add_314/Add", "PartitionedCall/model_63/tf.concat_80/concat/axis"], "attr": {"N": {"i": "3"}, "T": {"type": "DT_FLOAT"}, "Tidx": {"type": "DT_INT32"}}}, {"name": "PartitionedCall/model_63/tf.math.add_315/Add", "op": "_FusedConv2D", "input": ["PartitionedCall/model_63/tf.concat_80/concat", "86745", "86747"], "device": "/device:CPU:0", "attr": {"data_format": {"s": "TkhXQw=="}, "filter_format": {"s": "SFdJTw=="}, "leakyrelu_alpha": {"f": 0.2}, "dilations": {"list": {"i": ["1", "1", "1", "1"]}}, "num_args": {"i": "1"}, "T": {"type": "DT_FLOAT"}, "padding": {"s": "U0FNRQ=="}, "fused_ops": {"list": {"s": ["Qmlhc0FkZA=="]}}, "TArgs": {"list": {"type": ["DT_FLOAT"]}}, "strides": {"list": {"i": ["1", "1", "1", "1"]}}, "num_host_args": {"i": "0"}, "explicit_paddings": {"list": {}}, "epsilon": {"f": 0.0}, "use_cudnn_on_gpu": {"b": true}}}, {"name": "PartitionedCall/model_63/tf.math.sigmoid_237/Sigmoid", "op": "Sigmoid", "input": ["PartitionedCall/model_63/tf.math.add_315/Add"], "attr": {"T": {"type": "DT_FLOAT"}}}, {"name": "PartitionedCall/model_63/tf.math.multiply_1039/Mul", "op": "Mul", "input": ["PartitionedCall/model_63/tf.math.add_315/Add", "PartitionedCall/model_63/tf.math.sigmoid_237/Sigmoid"], "attr": {"T": {"type": "DT_FLOAT"}}}, {"name": "PartitionedCall/model_63/tf.compat.v1.pad_30/Pad", "op": "Pad", "input": ["PartitionedCall/model_63/tf.math.multiply_1039/Mul", "86749"], "attr": {"Tpaddings": {"type": "DT_INT32"}, "T": {"type": "DT_FLOAT"}}}, {"name": "PartitionedCall/model_63/tf.math.add_316/Add", "op": "_FusedConv2D", "input": ["PartitionedCall/model_63/tf.compat.v1.pad_30/Pad", "86751", "86753"], "device": "/device:CPU:0", "attr": {"leakyrelu_alpha": {"f": 0.2}, "num_host_args": {"i": "0"}, "epsilon": {"f": 0.0}, "T": {"type": "DT_FLOAT"}, "filter_format": {"s": "SFdJTw=="}, "num_args": {"i": "1"}, "use_cudnn_on_gpu": {"b": true}, "explicit_paddings": {"list": {}}, "data_format": {"s": "TkhXQw=="}, "strides": {"list": {"i": ["1", "2", "2", "1"]}}, "TArgs": {"list": {"type": ["DT_FLOAT"]}}, "dilations": {"list": {"i": ["1", "1", "1", "1"]}}, "padding": {"s": "VkFMSUQ="}, "fused_ops": {"list": {"s": ["Qmlhc0FkZA=="]}}}}, {"name": "PartitionedCall/model_63/tf.math.sigmoid_238/Sigmoid", "op": "Sigmoid", "input": ["PartitionedCall/model_63/tf.math.add_316/Add"], "attr": {"T": {"type": "DT_FLOAT"}}}, {"name": "PartitionedCall/model_63/tf.math.multiply_1043/Mul", "op": "Mul", "input": ["PartitionedCall/model_63/tf.math.add_316/Add", "PartitionedCall/model_63/tf.math.sigmoid_238/Sigmoid"], "attr": {"T": {"type": "DT_FLOAT"}}}, {"name": "PartitionedCall/model_63/tf.math.add_317/Add", "op": "_FusedConv2D", "input": ["PartitionedCall/model_63/tf.math.multiply_1043/Mul", "86755", "86757"], "device": "/device:CPU:0", "attr": {"num_args": {"i": "1"}, "strides": {"list": {"i": ["1", "1", "1", "1"]}}, "use_cudnn_on_gpu": {"b": true}, "filter_format": {"s": "SFdJTw=="}, "leakyrelu_alpha": {"f": 0.2}, "data_format": {"s": "TkhXQw=="}, "fused_ops": {"list": {"s": ["Qmlhc0FkZA=="]}}, "epsilon": {"f": 0.0}, "padding": {"s": "U0FNRQ=="}, "num_host_args": {"i": "0"}, "TArgs": {"list": {"type": ["DT_FLOAT"]}}, "T": {"type": "DT_FLOAT"}, "explicit_paddings": {"list": {}}, "dilations": {"list": {"i": ["1", "1", "1", "1"]}}}}, {"name": "PartitionedCall/model_63/tf.math.sigmoid_239/Sigmoid", "op": "Sigmoid", "input": ["PartitionedCall/model_63/tf.math.add_317/Add"], "attr": {"T": {"type": "DT_FLOAT"}}}, {"name": "PartitionedCall/model_63/tf.math.multiply_1047/Mul", "op": "Mul", "input": ["PartitionedCall/model_63/tf.math.add_317/Add", "PartitionedCall/model_63/tf.math.sigmoid_239/Sigmoid"], "attr": {"T": {"type": "DT_FLOAT"}}}, {"name": "PartitionedCall/model_63/tf.strided_slice_82/StridedSlice", "op": "StridedSlice", "input": ["PartitionedCall/model_63/tf.math.multiply_1047/Mul", "86779", "86781", "PartitionedCall/model_63/tf.strided_slice_82/ones_like"], "attr": {"ellipsis_mask": {"i": "0"}, "shrink_axis_mask": {"i": "0"}, "T": {"type": "DT_FLOAT"}, "new_axis_mask": {"i": "0"}, "begin_mask": {"i": "15"}, "end_mask": {"i": "7"}, "Index": {"type": "DT_INT64"}}}, {"name": "PartitionedCall/model_63/tf.strided_slice_83/StridedSlice", "op": "StridedSlice", "input": ["PartitionedCall/model_63/tf.math.multiply_1047/Mul", "86759", "86761", "PartitionedCall/model_63/tf.strided_slice_83/ones_like"], "attr": {"begin_mask": {"i": "7"}, "end_mask": {"i": "7"}, "ellipsis_mask": {"i": "0"}, "new_axis_mask": {"i": "0"}, "shrink_axis_mask": {"i": "0"}, "Index": {"type": "DT_INT64"}, "T": {"type": "DT_FLOAT"}}}, {"name": "PartitionedCall/model_63/tf.math.add_318/Add", "op": "_FusedConv2D", "input": ["PartitionedCall/model_63/tf.strided_slice_83/StridedSlice", "86763", "86765"], "device": "/device:CPU:0", "attr": {"data_format": {"s": "TkhXQw=="}, "explicit_paddings": {"list": {}}, "filter_format": {"s": "SFdJTw=="}, "epsilon": {"f": 0.0}, "fused_ops": {"list": {"s": ["Qmlhc0FkZA=="]}}, "num_host_args": {"i": "0"}, "use_cudnn_on_gpu": {"b": true}, "T": {"type": "DT_FLOAT"}, "padding": {"s": "U0FNRQ=="}, "TArgs": {"list": {"type": ["DT_FLOAT"]}}, "num_args": {"i": "1"}, "strides": {"list": {"i": ["1", "1", "1", "1"]}}, "dilations": {"list": {"i": ["1", "1", "1", "1"]}}, "leakyrelu_alpha": {"f": 0.2}}}, {"name": "PartitionedCall/model_63/tf.math.sigmoid_240/Sigmoid", "op": "Sigmoid", "input": ["PartitionedCall/model_63/tf.math.add_318/Add"], "attr": {"T": {"type": "DT_FLOAT"}}}, {"name": "PartitionedCall/model_63/tf.math.multiply_1051/Mul", "op": "Mul", "input": ["PartitionedCall/model_63/tf.math.add_318/Add", "PartitionedCall/model_63/tf.math.sigmoid_240/Sigmoid"], "attr": {"T": {"type": "DT_FLOAT"}}}, {"name": "PartitionedCall/model_63/tf.math.add_319/Add", "op": "_FusedConv2D", "input": ["PartitionedCall/model_63/tf.math.multiply_1051/Mul", "86767", "86769"], "device": "/device:CPU:0", "attr": {"epsilon": {"f": 0.0}, "filter_format": {"s": "SFdJTw=="}, "num_args": {"i": "1"}, "num_host_args": {"i": "0"}, "data_format": {"s": "TkhXQw=="}, "explicit_paddings": {"list": {}}, "strides": {"list": {"i": ["1", "1", "1", "1"]}}, "TArgs": {"list": {"type": ["DT_FLOAT"]}}, "padding": {"s": "U0FNRQ=="}, "fused_ops": {"list": {"s": ["Qmlhc0FkZA=="]}}, "dilations": {"list": {"i": ["1", "1", "1", "1"]}}, "use_cudnn_on_gpu": {"b": true}, "leakyrelu_alpha": {"f": 0.2}, "T": {"type": "DT_FLOAT"}}}, {"name": "PartitionedCall/model_63/tf.math.sigmoid_241/Sigmoid", "op": "Sigmoid", "input": ["PartitionedCall/model_63/tf.math.add_319/Add"], "attr": {"T": {"type": "DT_FLOAT"}}}, {"name": "PartitionedCall/model_63/tf.math.multiply_1055/Mul", "op": "Mul", "input": ["PartitionedCall/model_63/tf.math.add_319/Add", "PartitionedCall/model_63/tf.math.sigmoid_241/Sigmoid"], "attr": {"T": {"type": "DT_FLOAT"}}}, {"name": "PartitionedCall/model_63/tf.math.add_321/Add", "op": "AddV2", "input": ["PartitionedCall/model_63/tf.strided_slice_83/StridedSlice", "PartitionedCall/model_63/tf.math.multiply_1055/Mul"], "attr": {"T": {"type": "DT_FLOAT"}}}, {"name": "PartitionedCall/model_63/tf.math.add_322/Add", "op": "_FusedConv2D", "input": ["PartitionedCall/model_63/tf.math.add_321/Add", "86771", "86773"], "device": "/device:CPU:0", "attr": {"padding": {"s": "U0FNRQ=="}, "T": {"type": "DT_FLOAT"}, "filter_format": {"s": "SFdJTw=="}, "num_host_args": {"i": "0"}, "dilations": {"list": {"i": ["1", "1", "1", "1"]}}, "epsilon": {"f": 0.0}, "TArgs": {"list": {"type": ["DT_FLOAT"]}}, "leakyrelu_alpha": {"f": 0.2}, "num_args": {"i": "1"}, "explicit_paddings": {"list": {}}, "strides": {"list": {"i": ["1", "1", "1", "1"]}}, "data_format": {"s": "TkhXQw=="}, "use_cudnn_on_gpu": {"b": true}, "fused_ops": {"list": {"s": ["Qmlhc0FkZA=="]}}}}, {"name": "PartitionedCall/model_63/tf.math.sigmoid_242/Sigmoid", "op": "Sigmoid", "input": ["PartitionedCall/model_63/tf.math.add_322/Add"], "attr": {"T": {"type": "DT_FLOAT"}}}, {"name": "PartitionedCall/model_63/tf.math.multiply_1061/Mul", "op": "Mul", "input": ["PartitionedCall/model_63/tf.math.add_322/Add", "PartitionedCall/model_63/tf.math.sigmoid_242/Sigmoid"], "attr": {"T": {"type": "DT_FLOAT"}}}, {"name": "PartitionedCall/model_63/tf.math.add_323/Add", "op": "_FusedConv2D", "input": ["PartitionedCall/model_63/tf.math.multiply_1061/Mul", "86775", "86777"], "device": "/device:CPU:0", "attr": {"padding": {"s": "U0FNRQ=="}, "strides": {"list": {"i": ["1", "1", "1", "1"]}}, "num_host_args": {"i": "0"}, "dilations": {"list": {"i": ["1", "1", "1", "1"]}}, "fused_ops": {"list": {"s": ["Qmlhc0FkZA=="]}}, "leakyrelu_alpha": {"f": 0.2}, "data_format": {"s": "TkhXQw=="}, "epsilon": {"f": 0.0}, "num_args": {"i": "1"}, "TArgs": {"list": {"type": ["DT_FLOAT"]}}, "explicit_paddings": {"list": {}}, "use_cudnn_on_gpu": {"b": true}, "filter_format": {"s": "SFdJTw=="}, "T": {"type": "DT_FLOAT"}}}, {"name": "PartitionedCall/model_63/tf.math.sigmoid_243/Sigmoid", "op": "Sigmoid", "input": ["PartitionedCall/model_63/tf.math.add_323/Add"], "attr": {"T": {"type": "DT_FLOAT"}}}, {"name": "PartitionedCall/model_63/tf.math.multiply_1065/Mul", "op": "Mul", "input": ["PartitionedCall/model_63/tf.math.add_323/Add", "PartitionedCall/model_63/tf.math.sigmoid_243/Sigmoid"], "attr": {"T": {"type": "DT_FLOAT"}}}, {"name": "PartitionedCall/model_63/tf.math.add_325/Add", "op": "AddV2", "input": ["PartitionedCall/model_63/tf.math.add_321/Add", "PartitionedCall/model_63/tf.math.multiply_1065/Mul"], "attr": {"T": {"type": "DT_FLOAT"}}}, {"name": "PartitionedCall/model_63/tf.concat_81/concat", "op": "ConcatV2", "input": ["PartitionedCall/model_63/tf.strided_slice_82/StridedSlice", "PartitionedCall/model_63/tf.strided_slice_83/StridedSlice", "PartitionedCall/model_63/tf.math.add_321/Add", "PartitionedCall/model_63/tf.math.add_325/Add", "PartitionedCall/model_63/tf.concat_81/concat/axis"], "attr": {"N": {"i": "4"}, "Tidx": {"type": "DT_INT32"}, "T": {"type": "DT_FLOAT"}}}, {"name": "PartitionedCall/model_63/tf.math.add_326/Add", "op": "_FusedConv2D", "input": ["PartitionedCall/model_63/tf.concat_81/concat", "86783", "86785"], "device": "/device:CPU:0", "attr": {"explicit_paddings": {"list": {}}, "data_format": {"s": "TkhXQw=="}, "fused_ops": {"list": {"s": ["Qmlhc0FkZA=="]}}, "num_args": {"i": "1"}, "epsilon": {"f": 0.0}, "padding": {"s": "U0FNRQ=="}, "TArgs": {"list": {"type": ["DT_FLOAT"]}}, "filter_format": {"s": "SFdJTw=="}, "leakyrelu_alpha": {"f": 0.2}, "use_cudnn_on_gpu": {"b": true}, "dilations": {"list": {"i": ["1", "1", "1", "1"]}}, "strides": {"list": {"i": ["1", "1", "1", "1"]}}, "num_host_args": {"i": "0"}, "T": {"type": "DT_FLOAT"}}}, {"name": "PartitionedCall/model_63/tf.math.sigmoid_244/Sigmoid", "op": "Sigmoid", "input": ["PartitionedCall/model_63/tf.math.add_326/Add"], "attr": {"T": {"type": "DT_FLOAT"}}}, {"name": "PartitionedCall/model_63/tf.math.multiply_1071/Mul", "op": "Mul", "input": ["PartitionedCall/model_63/tf.math.add_326/Add", "PartitionedCall/model_63/tf.math.sigmoid_244/Sigmoid"], "attr": {"T": {"type": "DT_FLOAT"}}}, {"name": "PartitionedCall/model_63/tf.compat.v1.pad_31/Pad", "op": "Pad", "input": ["PartitionedCall/model_63/tf.math.multiply_1071/Mul", "86787"], "attr": {"T": {"type": "DT_FLOAT"}, "Tpaddings": {"type": "DT_INT32"}}}, {"name": "PartitionedCall/model_63/tf.math.add_327/Add", "op": "_FusedConv2D", "input": ["PartitionedCall/model_63/tf.compat.v1.pad_31/Pad", "86789", "86791"], "device": "/device:CPU:0", "attr": {"T": {"type": "DT_FLOAT"}, "fused_ops": {"list": {"s": ["Qmlhc0FkZA=="]}}, "leakyrelu_alpha": {"f": 0.2}, "padding": {"s": "VkFMSUQ="}, "explicit_paddings": {"list": {}}, "strides": {"list": {"i": ["1", "2", "2", "1"]}}, "filter_format": {"s": "SFdJTw=="}, "use_cudnn_on_gpu": {"b": true}, "epsilon": {"f": 0.0}, "TArgs": {"list": {"type": ["DT_FLOAT"]}}, "num_args": {"i": "1"}, "dilations": {"list": {"i": ["1", "1", "1", "1"]}}, "data_format": {"s": "TkhXQw=="}, "num_host_args": {"i": "0"}}}, {"name": "PartitionedCall/model_63/tf.math.sigmoid_245/Sigmoid", "op": "Sigmoid", "input": ["PartitionedCall/model_63/tf.math.add_327/Add"], "attr": {"T": {"type": "DT_FLOAT"}}}, {"name": "PartitionedCall/model_63/tf.math.multiply_1075/Mul", "op": "Mul", "input": ["PartitionedCall/model_63/tf.math.add_327/Add", "PartitionedCall/model_63/tf.math.sigmoid_245/Sigmoid"], "attr": {"T": {"type": "DT_FLOAT"}}}, {"name": "PartitionedCall/model_63/tf.math.add_328/Add", "op": "_FusedConv2D", "input": ["PartitionedCall/model_63/tf.math.multiply_1075/Mul", "86793", "86795"], "device": "/device:CPU:0", "attr": {"data_format": {"s": "TkhXQw=="}, "T": {"type": "DT_FLOAT"}, "explicit_paddings": {"list": {}}, "epsilon": {"f": 0.0}, "fused_ops": {"list": {"s": ["Qmlhc0FkZA=="]}}, "leakyrelu_alpha": {"f": 0.2}, "TArgs": {"list": {"type": ["DT_FLOAT"]}}, "num_args": {"i": "1"}, "num_host_args": {"i": "0"}, "filter_format": {"s": "SFdJTw=="}, "dilations": {"list": {"i": ["1", "1", "1", "1"]}}, "padding": {"s": "U0FNRQ=="}, "strides": {"list": {"i": ["1", "1", "1", "1"]}}, "use_cudnn_on_gpu": {"b": true}}}, {"name": "PartitionedCall/model_63/tf.math.sigmoid_246/Sigmoid", "op": "Sigmoid", "input": ["PartitionedCall/model_63/tf.math.add_328/Add"], "attr": {"T": {"type": "DT_FLOAT"}}}, {"name": "PartitionedCall/model_63/tf.math.multiply_1079/Mul", "op": "Mul", "input": ["PartitionedCall/model_63/tf.math.add_328/Add", "PartitionedCall/model_63/tf.math.sigmoid_246/Sigmoid"], "attr": {"T": {"type": "DT_FLOAT"}}}, {"name": "PartitionedCall/model_63/tf.strided_slice_84/StridedSlice", "op": "StridedSlice", "input": ["PartitionedCall/model_63/tf.math.multiply_1079/Mul", "86817", "86819", "PartitionedCall/model_63/tf.strided_slice_84/ones_like"], "attr": {"T": {"type": "DT_FLOAT"}, "new_axis_mask": {"i": "0"}, "Index": {"type": "DT_INT64"}, "end_mask": {"i": "7"}, "shrink_axis_mask": {"i": "0"}, "begin_mask": {"i": "15"}, "ellipsis_mask": {"i": "0"}}}, {"name": "PartitionedCall/model_63/tf.strided_slice_85/StridedSlice", "op": "StridedSlice", "input": ["PartitionedCall/model_63/tf.math.multiply_1079/Mul", "86797", "86799", "PartitionedCall/model_63/tf.strided_slice_85/ones_like"], "attr": {"begin_mask": {"i": "7"}, "new_axis_mask": {"i": "0"}, "Index": {"type": "DT_INT64"}, "T": {"type": "DT_FLOAT"}, "end_mask": {"i": "7"}, "ellipsis_mask": {"i": "0"}, "shrink_axis_mask": {"i": "0"}}}, {"name": "PartitionedCall/model_63/tf.math.add_329/Add", "op": "_FusedConv2D", "input": ["PartitionedCall/model_63/tf.strided_slice_85/StridedSlice", "86801", "86803"], "device": "/device:CPU:0", "attr": {"epsilon": {"f": 0.0}, "filter_format": {"s": "SFdJTw=="}, "TArgs": {"list": {"type": ["DT_FLOAT"]}}, "leakyrelu_alpha": {"f": 0.2}, "use_cudnn_on_gpu": {"b": true}, "T": {"type": "DT_FLOAT"}, "explicit_paddings": {"list": {}}, "data_format": {"s": "TkhXQw=="}, "strides": {"list": {"i": ["1", "1", "1", "1"]}}, "dilations": {"list": {"i": ["1", "1", "1", "1"]}}, "num_host_args": {"i": "0"}, "padding": {"s": "U0FNRQ=="}, "fused_ops": {"list": {"s": ["Qmlhc0FkZA=="]}}, "num_args": {"i": "1"}}}, {"name": "PartitionedCall/model_63/tf.math.sigmoid_247/Sigmoid", "op": "Sigmoid", "input": ["PartitionedCall/model_63/tf.math.add_329/Add"], "attr": {"T": {"type": "DT_FLOAT"}}}, {"name": "PartitionedCall/model_63/tf.math.multiply_1083/Mul", "op": "Mul", "input": ["PartitionedCall/model_63/tf.math.add_329/Add", "PartitionedCall/model_63/tf.math.sigmoid_247/Sigmoid"], "attr": {"T": {"type": "DT_FLOAT"}}}, {"name": "PartitionedCall/model_63/tf.math.add_330/Add", "op": "_FusedConv2D", "input": ["PartitionedCall/model_63/tf.math.multiply_1083/Mul", "86805", "86807"], "device": "/device:CPU:0", "attr": {"filter_format": {"s": "SFdJTw=="}, "use_cudnn_on_gpu": {"b": true}, "TArgs": {"list": {"type": ["DT_FLOAT"]}}, "data_format": {"s": "TkhXQw=="}, "num_args": {"i": "1"}, "explicit_paddings": {"list": {}}, "T": {"type": "DT_FLOAT"}, "strides": {"list": {"i": ["1", "1", "1", "1"]}}, "dilations": {"list": {"i": ["1", "1", "1", "1"]}}, "epsilon": {"f": 0.0}, "num_host_args": {"i": "0"}, "padding": {"s": "U0FNRQ=="}, "fused_ops": {"list": {"s": ["Qmlhc0FkZA=="]}}, "leakyrelu_alpha": {"f": 0.2}}}, {"name": "PartitionedCall/model_63/tf.math.sigmoid_248/Sigmoid", "op": "Sigmoid", "input": ["PartitionedCall/model_63/tf.math.add_330/Add"], "attr": {"T": {"type": "DT_FLOAT"}}}, {"name": "PartitionedCall/model_63/tf.math.multiply_1087/Mul", "op": "Mul", "input": ["PartitionedCall/model_63/tf.math.add_330/Add", "PartitionedCall/model_63/tf.math.sigmoid_248/Sigmoid"], "attr": {"T": {"type": "DT_FLOAT"}}}, {"name": "PartitionedCall/model_63/tf.math.add_332/Add", "op": "AddV2", "input": ["PartitionedCall/model_63/tf.strided_slice_85/StridedSlice", "PartitionedCall/model_63/tf.math.multiply_1087/Mul"], "attr": {"T": {"type": "DT_FLOAT"}}}, {"name": "PartitionedCall/model_63/tf.math.add_333/Add", "op": "_FusedConv2D", "input": ["PartitionedCall/model_63/tf.math.add_332/Add", "86809", "86811"], "device": "/device:CPU:0", "attr": {"explicit_paddings": {"list": {}}, "filter_format": {"s": "SFdJTw=="}, "T": {"type": "DT_FLOAT"}, "fused_ops": {"list": {"s": ["Qmlhc0FkZA=="]}}, "num_host_args": {"i": "0"}, "epsilon": {"f": 0.0}, "num_args": {"i": "1"}, "strides": {"list": {"i": ["1", "1", "1", "1"]}}, "data_format": {"s": "TkhXQw=="}, "dilations": {"list": {"i": ["1", "1", "1", "1"]}}, "TArgs": {"list": {"type": ["DT_FLOAT"]}}, "leakyrelu_alpha": {"f": 0.2}, "padding": {"s": "U0FNRQ=="}, "use_cudnn_on_gpu": {"b": true}}}, {"name": "PartitionedCall/model_63/tf.math.sigmoid_249/Sigmoid", "op": "Sigmoid", "input": ["PartitionedCall/model_63/tf.math.add_333/Add"], "attr": {"T": {"type": "DT_FLOAT"}}}, {"name": "PartitionedCall/model_63/tf.math.multiply_1093/Mul", "op": "Mul", "input": ["PartitionedCall/model_63/tf.math.add_333/Add", "PartitionedCall/model_63/tf.math.sigmoid_249/Sigmoid"], "attr": {"T": {"type": "DT_FLOAT"}}}, {"name": "PartitionedCall/model_63/tf.math.add_334/Add", "op": "_FusedConv2D", "input": ["PartitionedCall/model_63/tf.math.multiply_1093/Mul", "86813", "86815"], "device": "/device:CPU:0", "attr": {"data_format": {"s": "TkhXQw=="}, "leakyrelu_alpha": {"f": 0.2}, "use_cudnn_on_gpu": {"b": true}, "epsilon": {"f": 0.0}, "dilations": {"list": {"i": ["1", "1", "1", "1"]}}, "explicit_paddings": {"list": {}}, "num_host_args": {"i": "0"}, "fused_ops": {"list": {"s": ["Qmlhc0FkZA=="]}}, "num_args": {"i": "1"}, "filter_format": {"s": "SFdJTw=="}, "TArgs": {"list": {"type": ["DT_FLOAT"]}}, "strides": {"list": {"i": ["1", "1", "1", "1"]}}, "padding": {"s": "U0FNRQ=="}, "T": {"type": "DT_FLOAT"}}}, {"name": "PartitionedCall/model_63/tf.math.sigmoid_250/Sigmoid", "op": "Sigmoid", "input": ["PartitionedCall/model_63/tf.math.add_334/Add"], "attr": {"T": {"type": "DT_FLOAT"}}}, {"name": "PartitionedCall/model_63/tf.math.multiply_1097/Mul", "op": "Mul", "input": ["PartitionedCall/model_63/tf.math.add_334/Add", "PartitionedCall/model_63/tf.math.sigmoid_250/Sigmoid"], "attr": {"T": {"type": "DT_FLOAT"}}}, {"name": "PartitionedCall/model_63/tf.math.add_336/Add", "op": "AddV2", "input": ["PartitionedCall/model_63/tf.math.add_332/Add", "PartitionedCall/model_63/tf.math.multiply_1097/Mul"], "attr": {"T": {"type": "DT_FLOAT"}}}, {"name": "PartitionedCall/model_63/tf.concat_82/concat", "op": "ConcatV2", "input": ["PartitionedCall/model_63/tf.strided_slice_84/StridedSlice", "PartitionedCall/model_63/tf.strided_slice_85/StridedSlice", "PartitionedCall/model_63/tf.math.add_332/Add", "PartitionedCall/model_63/tf.math.add_336/Add", "PartitionedCall/model_63/tf.concat_82/concat/axis"], "attr": {"N": {"i": "4"}, "Tidx": {"type": "DT_INT32"}, "T": {"type": "DT_FLOAT"}}}, {"name": "PartitionedCall/model_63/tf.math.add_337/Add", "op": "_FusedConv2D", "input": ["PartitionedCall/model_63/tf.concat_82/concat", "86821", "86823"], "device": "/device:CPU:0", "attr": {"use_cudnn_on_gpu": {"b": true}, "dilations": {"list": {"i": ["1", "1", "1", "1"]}}, "explicit_paddings": {"list": {}}, "data_format": {"s": "TkhXQw=="}, "strides": {"list": {"i": ["1", "1", "1", "1"]}}, "leakyrelu_alpha": {"f": 0.2}, "num_host_args": {"i": "0"}, "fused_ops": {"list": {"s": ["Qmlhc0FkZA=="]}}, "filter_format": {"s": "SFdJTw=="}, "padding": {"s": "U0FNRQ=="}, "T": {"type": "DT_FLOAT"}, "TArgs": {"list": {"type": ["DT_FLOAT"]}}, "num_args": {"i": "1"}, "epsilon": {"f": 0.0}}}, {"name": "PartitionedCall/model_63/tf.math.sigmoid_251/Sigmoid", "op": "Sigmoid", "input": ["PartitionedCall/model_63/tf.math.add_337/Add"], "attr": {"T": {"type": "DT_FLOAT"}}}, {"name": "PartitionedCall/model_63/tf.math.multiply_1103/Mul", "op": "Mul", "input": ["PartitionedCall/model_63/tf.math.add_337/Add", "PartitionedCall/model_63/tf.math.sigmoid_251/Sigmoid"], "attr": {"T": {"type": "DT_FLOAT"}}}, {"name": "PartitionedCall/model_63/tf.compat.v1.pad_32/Pad", "op": "Pad", "input": ["PartitionedCall/model_63/tf.math.multiply_1103/Mul", "86825"], "attr": {"Tpaddings": {"type": "DT_INT32"}, "T": {"type": "DT_FLOAT"}}}, {"name": "PartitionedCall/model_63/tf.math.add_338/Add", "op": "_FusedConv2D", "input": ["PartitionedCall/model_63/tf.compat.v1.pad_32/Pad", "86827", "86829"], "device": "/device:CPU:0", "attr": {"TArgs": {"list": {"type": ["DT_FLOAT"]}}, "data_format": {"s": "TkhXQw=="}, "leakyrelu_alpha": {"f": 0.2}, "num_args": {"i": "1"}, "epsilon": {"f": 0.0}, "num_host_args": {"i": "0"}, "filter_format": {"s": "SFdJTw=="}, "explicit_paddings": {"list": {}}, "padding": {"s": "VkFMSUQ="}, "use_cudnn_on_gpu": {"b": true}, "dilations": {"list": {"i": ["1", "1", "1", "1"]}}, "fused_ops": {"list": {"s": ["Qmlhc0FkZA=="]}}, "strides": {"list": {"i": ["1", "2", "2", "1"]}}, "T": {"type": "DT_FLOAT"}}}, {"name": "PartitionedCall/model_63/tf.math.sigmoid_252/Sigmoid", "op": "Sigmoid", "input": ["PartitionedCall/model_63/tf.math.add_338/Add"], "attr": {"T": {"type": "DT_FLOAT"}}}, {"name": "PartitionedCall/model_63/tf.math.multiply_1107/Mul", "op": "Mul", "input": ["PartitionedCall/model_63/tf.math.add_338/Add", "PartitionedCall/model_63/tf.math.sigmoid_252/Sigmoid"], "attr": {"T": {"type": "DT_FLOAT"}}}, {"name": "PartitionedCall/model_63/tf.math.add_339/Add", "op": "_FusedConv2D", "input": ["PartitionedCall/model_63/tf.math.multiply_1107/Mul", "86831", "86833"], "device": "/device:CPU:0", "attr": {"num_args": {"i": "1"}, "leakyrelu_alpha": {"f": 0.2}, "data_format": {"s": "TkhXQw=="}, "padding": {"s": "U0FNRQ=="}, "strides": {"list": {"i": ["1", "1", "1", "1"]}}, "explicit_paddings": {"list": {}}, "TArgs": {"list": {"type": ["DT_FLOAT"]}}, "use_cudnn_on_gpu": {"b": true}, "num_host_args": {"i": "0"}, "fused_ops": {"list": {"s": ["Qmlhc0FkZA=="]}}, "epsilon": {"f": 0.0}, "T": {"type": "DT_FLOAT"}, "filter_format": {"s": "SFdJTw=="}, "dilations": {"list": {"i": ["1", "1", "1", "1"]}}}}, {"name": "PartitionedCall/model_63/tf.math.sigmoid_253/Sigmoid", "op": "Sigmoid", "input": ["PartitionedCall/model_63/tf.math.add_339/Add"], "attr": {"T": {"type": "DT_FLOAT"}}}, {"name": "PartitionedCall/model_63/tf.math.multiply_1111/Mul", "op": "Mul", "input": ["PartitionedCall/model_63/tf.math.add_339/Add", "PartitionedCall/model_63/tf.math.sigmoid_253/Sigmoid"], "attr": {"T": {"type": "DT_FLOAT"}}}, {"name": "PartitionedCall/model_63/tf.strided_slice_86/StridedSlice", "op": "StridedSlice", "input": ["PartitionedCall/model_63/tf.math.multiply_1111/Mul", "86847", "86849", "PartitionedCall/model_63/tf.strided_slice_86/ones_like"], "attr": {"Index": {"type": "DT_INT64"}, "ellipsis_mask": {"i": "0"}, "new_axis_mask": {"i": "0"}, "T": {"type": "DT_FLOAT"}, "begin_mask": {"i": "15"}, "end_mask": {"i": "7"}, "shrink_axis_mask": {"i": "0"}}}, {"name": "PartitionedCall/model_63/tf.strided_slice_87/StridedSlice", "op": "StridedSlice", "input": ["PartitionedCall/model_63/tf.math.multiply_1111/Mul", "86835", "86837", "PartitionedCall/model_63/tf.strided_slice_87/ones_like"], "attr": {"begin_mask": {"i": "7"}, "end_mask": {"i": "7"}, "T": {"type": "DT_FLOAT"}, "Index": {"type": "DT_INT64"}, "ellipsis_mask": {"i": "0"}, "shrink_axis_mask": {"i": "0"}, "new_axis_mask": {"i": "0"}}}, {"name": "PartitionedCall/model_63/tf.math.add_340/Add", "op": "_FusedConv2D", "input": ["PartitionedCall/model_63/tf.strided_slice_87/StridedSlice", "86839", "86841"], "device": "/device:CPU:0", "attr": {"num_host_args": {"i": "0"}, "strides": {"list": {"i": ["1", "1", "1", "1"]}}, "data_format": {"s": "TkhXQw=="}, "T": {"type": "DT_FLOAT"}, "epsilon": {"f": 0.0}, "dilations": {"list": {"i": ["1", "1", "1", "1"]}}, "fused_ops": {"list": {"s": ["Qmlhc0FkZA=="]}}, "use_cudnn_on_gpu": {"b": true}, "TArgs": {"list": {"type": ["DT_FLOAT"]}}, "padding": {"s": "U0FNRQ=="}, "leakyrelu_alpha": {"f": 0.2}, "explicit_paddings": {"list": {}}, "num_args": {"i": "1"}, "filter_format": {"s": "SFdJTw=="}}}, {"name": "PartitionedCall/model_63/tf.math.sigmoid_254/Sigmoid", "op": "Sigmoid", "input": ["PartitionedCall/model_63/tf.math.add_340/Add"], "attr": {"T": {"type": "DT_FLOAT"}}}, {"name": "PartitionedCall/model_63/tf.math.multiply_1115/Mul", "op": "Mul", "input": ["PartitionedCall/model_63/tf.math.add_340/Add", "PartitionedCall/model_63/tf.math.sigmoid_254/Sigmoid"], "attr": {"T": {"type": "DT_FLOAT"}}}, {"name": "PartitionedCall/model_63/tf.math.add_341/Add", "op": "_FusedConv2D", "input": ["PartitionedCall/model_63/tf.math.multiply_1115/Mul", "86843", "86845"], "device": "/device:CPU:0", "attr": {"epsilon": {"f": 0.0}, "T": {"type": "DT_FLOAT"}, "strides": {"list": {"i": ["1", "1", "1", "1"]}}, "TArgs": {"list": {"type": ["DT_FLOAT"]}}, "padding": {"s": "U0FNRQ=="}, "filter_format": {"s": "SFdJTw=="}, "explicit_paddings": {"list": {}}, "dilations": {"list": {"i": ["1", "1", "1", "1"]}}, "num_args": {"i": "1"}, "num_host_args": {"i": "0"}, "use_cudnn_on_gpu": {"b": true}, "data_format": {"s": "TkhXQw=="}, "leakyrelu_alpha": {"f": 0.2}, "fused_ops": {"list": {"s": ["Qmlhc0FkZA=="]}}}}, {"name": "PartitionedCall/model_63/tf.math.sigmoid_255/Sigmoid", "op": "Sigmoid", "input": ["PartitionedCall/model_63/tf.math.add_341/Add"], "attr": {"T": {"type": "DT_FLOAT"}}}, {"name": "PartitionedCall/model_63/tf.math.multiply_1119/Mul", "op": "Mul", "input": ["PartitionedCall/model_63/tf.math.add_341/Add", "PartitionedCall/model_63/tf.math.sigmoid_255/Sigmoid"], "attr": {"T": {"type": "DT_FLOAT"}}}, {"name": "PartitionedCall/model_63/tf.math.add_343/Add", "op": "AddV2", "input": ["PartitionedCall/model_63/tf.strided_slice_87/StridedSlice", "PartitionedCall/model_63/tf.math.multiply_1119/Mul"], "attr": {"T": {"type": "DT_FLOAT"}}}, {"name": "PartitionedCall/model_63/tf.concat_83/concat", "op": "ConcatV2", "input": ["PartitionedCall/model_63/tf.strided_slice_86/StridedSlice", "PartitionedCall/model_63/tf.strided_slice_87/StridedSlice", "PartitionedCall/model_63/tf.math.add_343/Add", "PartitionedCall/model_63/tf.concat_83/concat/axis"], "attr": {"T": {"type": "DT_FLOAT"}, "N": {"i": "3"}, "Tidx": {"type": "DT_INT32"}}}, {"name": "PartitionedCall/model_63/tf.math.add_344/Add", "op": "_FusedConv2D", "input": ["PartitionedCall/model_63/tf.concat_83/concat", "86851", "86853"], "device": "/device:CPU:0", "attr": {"strides": {"list": {"i": ["1", "1", "1", "1"]}}, "fused_ops": {"list": {"s": ["Qmlhc0FkZA=="]}}, "dilations": {"list": {"i": ["1", "1", "1", "1"]}}, "T": {"type": "DT_FLOAT"}, "data_format": {"s": "TkhXQw=="}, "padding": {"s": "U0FNRQ=="}, "num_host_args": {"i": "0"}, "filter_format": {"s": "SFdJTw=="}, "TArgs": {"list": {"type": ["DT_FLOAT"]}}, "leakyrelu_alpha": {"f": 0.2}, "epsilon": {"f": 0.0}, "num_args": {"i": "1"}, "explicit_paddings": {"list": {}}, "use_cudnn_on_gpu": {"b": true}}}, {"name": "PartitionedCall/model_63/tf.math.sigmoid_256/Sigmoid", "op": "Sigmoid", "input": ["PartitionedCall/model_63/tf.math.add_344/Add"], "attr": {"T": {"type": "DT_FLOAT"}}}, {"name": "PartitionedCall/model_63/tf.math.multiply_1125/Mul", "op": "Mul", "input": ["PartitionedCall/model_63/tf.math.add_344/Add", "PartitionedCall/model_63/tf.math.sigmoid_256/Sigmoid"], "attr": {"T": {"type": "DT_FLOAT"}}}, {"name": "PartitionedCall/model_63/tf.math.add_345/Add", "op": "_FusedConv2D", "input": ["PartitionedCall/model_63/tf.math.multiply_1125/Mul", "86855", "86857"], "device": "/device:CPU:0", "attr": {"num_args": {"i": "1"}, "strides": {"list": {"i": ["1", "1", "1", "1"]}}, "dilations": {"list": {"i": ["1", "1", "1", "1"]}}, "use_cudnn_on_gpu": {"b": true}, "T": {"type": "DT_FLOAT"}, "num_host_args": {"i": "0"}, "data_format": {"s": "TkhXQw=="}, "leakyrelu_alpha": {"f": 0.2}, "padding": {"s": "U0FNRQ=="}, "epsilon": {"f": 0.0}, "explicit_paddings": {"list": {}}, "fused_ops": {"list": {"s": ["Qmlhc0FkZA=="]}}, "filter_format": {"s": "SFdJTw=="}, "TArgs": {"list": {"type": ["DT_FLOAT"]}}}}, {"name": "PartitionedCall/model_63/tf.math.sigmoid_257/Sigmoid", "op": "Sigmoid", "input": ["PartitionedCall/model_63/tf.math.add_345/Add"], "attr": {"T": {"type": "DT_FLOAT"}}}, {"name": "PartitionedCall/model_63/tf.math.multiply_1129/Mul", "op": "Mul", "input": ["PartitionedCall/model_63/tf.math.add_345/Add", "PartitionedCall/model_63/tf.math.sigmoid_257/Sigmoid"], "attr": {"T": {"type": "DT_FLOAT"}}}, {"name": "PartitionedCall/model_63/tf.compat.v1.nn.pool_12/max_pool", "op": "MaxPool", "input": ["PartitionedCall/model_63/tf.math.multiply_1129/Mul"], "attr": {"ksize": {"list": {"i": ["1", "5", "5", "1"]}}, "data_format": {"s": "TkhXQw=="}, "T": {"type": "DT_FLOAT"}, "explicit_paddings": {"list": {}}, "strides": {"list": {"i": ["1", "1", "1", "1"]}}, "padding": {"s": "U0FNRQ=="}}}, {"name": "PartitionedCall/model_63/tf.compat.v1.nn.pool_13/max_pool", "op": "MaxPool", "input": ["PartitionedCall/model_63/tf.compat.v1.nn.pool_12/max_pool"], "attr": {"data_format": {"s": "TkhXQw=="}, "ksize": {"list": {"i": ["1", "5", "5", "1"]}}, "T": {"type": "DT_FLOAT"}, "explicit_paddings": {"list": {}}, "padding": {"s": "U0FNRQ=="}, "strides": {"list": {"i": ["1", "1", "1", "1"]}}}}, {"name": "PartitionedCall/model_63/tf.compat.v1.nn.pool_14/max_pool", "op": "MaxPool", "input": ["PartitionedCall/model_63/tf.compat.v1.nn.pool_13/max_pool"], "attr": {"T": {"type": "DT_FLOAT"}, "strides": {"list": {"i": ["1", "1", "1", "1"]}}, "padding": {"s": "U0FNRQ=="}, "data_format": {"s": "TkhXQw=="}, "explicit_paddings": {"list": {}}, "ksize": {"list": {"i": ["1", "5", "5", "1"]}}}}, {"name": "PartitionedCall/model_63/tf.concat_84/concat", "op": "ConcatV2", "input": ["PartitionedCall/model_63/tf.math.multiply_1129/Mul", "PartitionedCall/model_63/tf.compat.v1.nn.pool_12/max_pool", "PartitionedCall/model_63/tf.compat.v1.nn.pool_13/max_pool", "PartitionedCall/model_63/tf.compat.v1.nn.pool_14/max_pool", "PartitionedCall/model_63/tf.concat_84/concat/axis"], "attr": {"N": {"i": "4"}, "Tidx": {"type": "DT_INT32"}, "T": {"type": "DT_FLOAT"}}}, {"name": "PartitionedCall/model_63/tf.math.add_346/Add", "op": "_FusedConv2D", "input": ["PartitionedCall/model_63/tf.concat_84/concat", "86859", "86861"], "device": "/device:CPU:0", "attr": {"leakyrelu_alpha": {"f": 0.2}, "epsilon": {"f": 0.0}, "dilations": {"list": {"i": ["1", "1", "1", "1"]}}, "num_args": {"i": "1"}, "TArgs": {"list": {"type": ["DT_FLOAT"]}}, "strides": {"list": {"i": ["1", "1", "1", "1"]}}, "data_format": {"s": "TkhXQw=="}, "filter_format": {"s": "SFdJTw=="}, "padding": {"s": "U0FNRQ=="}, "fused_ops": {"list": {"s": ["Qmlhc0FkZA=="]}}, "use_cudnn_on_gpu": {"b": true}, "T": {"type": "DT_FLOAT"}, "explicit_paddings": {"list": {}}, "num_host_args": {"i": "0"}}}, {"name": "PartitionedCall/model_63/tf.math.sigmoid_258/Sigmoid", "op": "Sigmoid", "input": ["PartitionedCall/model_63/tf.math.add_346/Add"], "attr": {"T": {"type": "DT_FLOAT"}}}, {"name": "PartitionedCall/model_63/tf.math.multiply_1133/Mul", "op": "Mul", "input": ["PartitionedCall/model_63/tf.math.add_346/Add", "PartitionedCall/model_63/tf.math.sigmoid_258/Sigmoid"], "attr": {"T": {"type": "DT_FLOAT"}}}, {"name": "PartitionedCall/model_63/tf.image.resize_8/resize/ResizeNearestNeighbor", "op": "ResizeNearestNeighbor", "input": ["PartitionedCall/model_63/tf.math.multiply_1133/Mul", "PartitionedCall/model_63/tf.image.resize_8/resize/size"], "attr": {"align_corners": {"b": false}, "T": {"type": "DT_FLOAT"}, "half_pixel_centers": {"b": true}}}, {"name": "PartitionedCall/model_63/tf.concat_85/concat", "op": "ConcatV2", "input": ["PartitionedCall/model_63/tf.image.resize_8/resize/ResizeNearestNeighbor", "PartitionedCall/model_63/tf.math.multiply_1103/Mul", "PartitionedCall/model_63/tf.concat_85/concat/axis"], "attr": {"T": {"type": "DT_FLOAT"}, "Tidx": {"type": "DT_INT32"}, "N": {"i": "2"}}}, {"name": "PartitionedCall/model_63/tf.math.add_347/Add", "op": "_FusedConv2D", "input": ["PartitionedCall/model_63/tf.concat_85/concat", "86863", "86865"], "device": "/device:CPU:0", "attr": {"num_host_args": {"i": "0"}, "epsilon": {"f": 0.0}, "T": {"type": "DT_FLOAT"}, "use_cudnn_on_gpu": {"b": true}, "strides": {"list": {"i": ["1", "1", "1", "1"]}}, "leakyrelu_alpha": {"f": 0.2}, "fused_ops": {"list": {"s": ["Qmlhc0FkZA=="]}}, "padding": {"s": "U0FNRQ=="}, "data_format": {"s": "TkhXQw=="}, "dilations": {"list": {"i": ["1", "1", "1", "1"]}}, "TArgs": {"list": {"type": ["DT_FLOAT"]}}, "num_args": {"i": "1"}, "filter_format": {"s": "SFdJTw=="}, "explicit_paddings": {"list": {}}}}, {"name": "PartitionedCall/model_63/tf.math.sigmoid_259/Sigmoid", "op": "Sigmoid", "input": ["PartitionedCall/model_63/tf.math.add_347/Add"], "attr": {"T": {"type": "DT_FLOAT"}}}, {"name": "PartitionedCall/model_63/tf.math.multiply_1137/Mul", "op": "Mul", "input": ["PartitionedCall/model_63/tf.math.add_347/Add", "PartitionedCall/model_63/tf.math.sigmoid_259/Sigmoid"], "attr": {"T": {"type": "DT_FLOAT"}}}, {"name": "PartitionedCall/model_63/tf.strided_slice_88/StridedSlice", "op": "StridedSlice", "input": ["PartitionedCall/model_63/tf.math.multiply_1137/Mul", "86879", "86881", "PartitionedCall/model_63/tf.strided_slice_88/ones_like"], "attr": {"new_axis_mask": {"i": "0"}, "T": {"type": "DT_FLOAT"}, "begin_mask": {"i": "15"}, "shrink_axis_mask": {"i": "0"}, "Index": {"type": "DT_INT64"}, "end_mask": {"i": "7"}, "ellipsis_mask": {"i": "0"}}}, {"name": "PartitionedCall/model_63/tf.strided_slice_89/StridedSlice", "op": "StridedSlice", "input": ["PartitionedCall/model_63/tf.math.multiply_1137/Mul", "86867", "86869", "PartitionedCall/model_63/tf.strided_slice_89/ones_like"], "attr": {"Index": {"type": "DT_INT64"}, "T": {"type": "DT_FLOAT"}, "begin_mask": {"i": "7"}, "shrink_axis_mask": {"i": "0"}, "end_mask": {"i": "7"}, "new_axis_mask": {"i": "0"}, "ellipsis_mask": {"i": "0"}}}, {"name": "PartitionedCall/model_63/tf.math.add_348/Add", "op": "_FusedConv2D", "input": ["PartitionedCall/model_63/tf.strided_slice_89/StridedSlice", "86871", "86873"], "device": "/device:CPU:0", "attr": {"epsilon": {"f": 0.0}, "num_host_args": {"i": "0"}, "num_args": {"i": "1"}, "fused_ops": {"list": {"s": ["Qmlhc0FkZA=="]}}, "filter_format": {"s": "SFdJTw=="}, "TArgs": {"list": {"type": ["DT_FLOAT"]}}, "data_format": {"s": "TkhXQw=="}, "explicit_paddings": {"list": {}}, "leakyrelu_alpha": {"f": 0.2}, "strides": {"list": {"i": ["1", "1", "1", "1"]}}, "use_cudnn_on_gpu": {"b": true}, "T": {"type": "DT_FLOAT"}, "padding": {"s": "U0FNRQ=="}, "dilations": {"list": {"i": ["1", "1", "1", "1"]}}}}, {"name": "PartitionedCall/model_63/tf.math.sigmoid_260/Sigmoid", "op": "Sigmoid", "input": ["PartitionedCall/model_63/tf.math.add_348/Add"], "attr": {"T": {"type": "DT_FLOAT"}}}, {"name": "PartitionedCall/model_63/tf.math.multiply_1141/Mul", "op": "Mul", "input": ["PartitionedCall/model_63/tf.math.add_348/Add", "PartitionedCall/model_63/tf.math.sigmoid_260/Sigmoid"], "attr": {"T": {"type": "DT_FLOAT"}}}, {"name": "PartitionedCall/model_63/tf.math.add_349/Add", "op": "_FusedConv2D", "input": ["PartitionedCall/model_63/tf.math.multiply_1141/Mul", "86875", "86877"], "device": "/device:CPU:0", "attr": {"use_cudnn_on_gpu": {"b": true}, "filter_format": {"s": "SFdJTw=="}, "leakyrelu_alpha": {"f": 0.2}, "num_host_args": {"i": "0"}, "padding": {"s": "U0FNRQ=="}, "explicit_paddings": {"list": {}}, "dilations": {"list": {"i": ["1", "1", "1", "1"]}}, "data_format": {"s": "TkhXQw=="}, "fused_ops": {"list": {"s": ["Qmlhc0FkZA=="]}}, "num_args": {"i": "1"}, "TArgs": {"list": {"type": ["DT_FLOAT"]}}, "T": {"type": "DT_FLOAT"}, "strides": {"list": {"i": ["1", "1", "1", "1"]}}, "epsilon": {"f": 0.0}}}, {"name": "PartitionedCall/model_63/tf.math.sigmoid_261/Sigmoid", "op": "Sigmoid", "input": ["PartitionedCall/model_63/tf.math.add_349/Add"], "attr": {"T": {"type": "DT_FLOAT"}}}, {"name": "PartitionedCall/model_63/tf.math.multiply_1145/Mul", "op": "Mul", "input": ["PartitionedCall/model_63/tf.math.add_349/Add", "PartitionedCall/model_63/tf.math.sigmoid_261/Sigmoid"], "attr": {"T": {"type": "DT_FLOAT"}}}, {"name": "PartitionedCall/model_63/tf.concat_86/concat", "op": "ConcatV2", "input": ["PartitionedCall/model_63/tf.strided_slice_88/StridedSlice", "PartitionedCall/model_63/tf.strided_slice_89/StridedSlice", "PartitionedCall/model_63/tf.math.multiply_1145/Mul", "PartitionedCall/model_63/tf.concat_86/concat/axis"], "attr": {"T": {"type": "DT_FLOAT"}, "Tidx": {"type": "DT_INT32"}, "N": {"i": "3"}}}, {"name": "PartitionedCall/model_63/tf.math.add_350/Add", "op": "_FusedConv2D", "input": ["PartitionedCall/model_63/tf.concat_86/concat", "86883", "86885"], "device": "/device:CPU:0", "attr": {"strides": {"list": {"i": ["1", "1", "1", "1"]}}, "data_format": {"s": "TkhXQw=="}, "T": {"type": "DT_FLOAT"}, "leakyrelu_alpha": {"f": 0.2}, "padding": {"s": "U0FNRQ=="}, "epsilon": {"f": 0.0}, "dilations": {"list": {"i": ["1", "1", "1", "1"]}}, "num_host_args": {"i": "0"}, "fused_ops": {"list": {"s": ["Qmlhc0FkZA=="]}}, "use_cudnn_on_gpu": {"b": true}, "explicit_paddings": {"list": {}}, "num_args": {"i": "1"}, "filter_format": {"s": "SFdJTw=="}, "TArgs": {"list": {"type": ["DT_FLOAT"]}}}}, {"name": "PartitionedCall/model_63/tf.math.sigmoid_262/Sigmoid", "op": "Sigmoid", "input": ["PartitionedCall/model_63/tf.math.add_350/Add"], "attr": {"T": {"type": "DT_FLOAT"}}}, {"name": "PartitionedCall/model_63/tf.math.multiply_1149/Mul", "op": "Mul", "input": ["PartitionedCall/model_63/tf.math.add_350/Add", "PartitionedCall/model_63/tf.math.sigmoid_262/Sigmoid"], "attr": {"T": {"type": "DT_FLOAT"}}}, {"name": "PartitionedCall/model_63/tf.image.resize_9/resize/ResizeNearestNeighbor", "op": "ResizeNearestNeighbor", "input": ["PartitionedCall/model_63/tf.math.multiply_1149/Mul", "PartitionedCall/model_63/tf.image.resize_9/resize/size"], "attr": {"align_corners": {"b": false}, "T": {"type": "DT_FLOAT"}, "half_pixel_centers": {"b": true}}}, {"name": "PartitionedCall/model_63/tf.concat_87/concat", "op": "ConcatV2", "input": ["PartitionedCall/model_63/tf.image.resize_9/resize/ResizeNearestNeighbor", "PartitionedCall/model_63/tf.math.multiply_1071/Mul", "PartitionedCall/model_63/tf.concat_87/concat/axis"], "attr": {"Tidx": {"type": "DT_INT32"}, "T": {"type": "DT_FLOAT"}, "N": {"i": "2"}}}, {"name": "PartitionedCall/model_63/tf.math.add_351/Add", "op": "_FusedConv2D", "input": ["PartitionedCall/model_63/tf.concat_87/concat", "86887", "86889"], "device": "/device:CPU:0", "attr": {"leakyrelu_alpha": {"f": 0.2}, "strides": {"list": {"i": ["1", "1", "1", "1"]}}, "padding": {"s": "U0FNRQ=="}, "num_args": {"i": "1"}, "filter_format": {"s": "SFdJTw=="}, "TArgs": {"list": {"type": ["DT_FLOAT"]}}, "data_format": {"s": "TkhXQw=="}, "explicit_paddings": {"list": {}}, "epsilon": {"f": 0.0}, "use_cudnn_on_gpu": {"b": true}, "T": {"type": "DT_FLOAT"}, "num_host_args": {"i": "0"}, "fused_ops": {"list": {"s": ["Qmlhc0FkZA=="]}}, "dilations": {"list": {"i": ["1", "1", "1", "1"]}}}}, {"name": "PartitionedCall/model_63/tf.math.sigmoid_263/Sigmoid", "op": "Sigmoid", "input": ["PartitionedCall/model_63/tf.math.add_351/Add"], "attr": {"T": {"type": "DT_FLOAT"}}}, {"name": "PartitionedCall/model_63/tf.math.multiply_1153/Mul", "op": "Mul", "input": ["PartitionedCall/model_63/tf.math.add_351/Add", "PartitionedCall/model_63/tf.math.sigmoid_263/Sigmoid"], "attr": {"T": {"type": "DT_FLOAT"}}}, {"name": "PartitionedCall/model_63/tf.strided_slice_90/StridedSlice", "op": "StridedSlice", "input": ["PartitionedCall/model_63/tf.math.multiply_1153/Mul", "86903", "86905", "PartitionedCall/model_63/tf.strided_slice_90/ones_like"], "attr": {"ellipsis_mask": {"i": "0"}, "shrink_axis_mask": {"i": "0"}, "new_axis_mask": {"i": "0"}, "T": {"type": "DT_FLOAT"}, "end_mask": {"i": "7"}, "Index": {"type": "DT_INT64"}, "begin_mask": {"i": "15"}}}, {"name": "PartitionedCall/model_63/tf.strided_slice_91/StridedSlice", "op": "StridedSlice", "input": ["PartitionedCall/model_63/tf.math.multiply_1153/Mul", "86891", "86893", "PartitionedCall/model_63/tf.strided_slice_91/ones_like"], "attr": {"end_mask": {"i": "7"}, "T": {"type": "DT_FLOAT"}, "shrink_axis_mask": {"i": "0"}, "Index": {"type": "DT_INT64"}, "begin_mask": {"i": "7"}, "ellipsis_mask": {"i": "0"}, "new_axis_mask": {"i": "0"}}}, {"name": "PartitionedCall/model_63/tf.math.add_352/Add", "op": "_FusedConv2D", "input": ["PartitionedCall/model_63/tf.strided_slice_91/StridedSlice", "86895", "86897"], "device": "/device:CPU:0", "attr": {"padding": {"s": "U0FNRQ=="}, "explicit_paddings": {"list": {}}, "data_format": {"s": "TkhXQw=="}, "filter_format": {"s": "SFdJTw=="}, "use_cudnn_on_gpu": {"b": true}, "epsilon": {"f": 0.0}, "fused_ops": {"list": {"s": ["Qmlhc0FkZA=="]}}, "num_host_args": {"i": "0"}, "strides": {"list": {"i": ["1", "1", "1", "1"]}}, "dilations": {"list": {"i": ["1", "1", "1", "1"]}}, "TArgs": {"list": {"type": ["DT_FLOAT"]}}, "num_args": {"i": "1"}, "T": {"type": "DT_FLOAT"}, "leakyrelu_alpha": {"f": 0.2}}}, {"name": "PartitionedCall/model_63/tf.math.sigmoid_264/Sigmoid", "op": "Sigmoid", "input": ["PartitionedCall/model_63/tf.math.add_352/Add"], "attr": {"T": {"type": "DT_FLOAT"}}}, {"name": "PartitionedCall/model_63/tf.math.multiply_1157/Mul", "op": "Mul", "input": ["PartitionedCall/model_63/tf.math.add_352/Add", "PartitionedCall/model_63/tf.math.sigmoid_264/Sigmoid"], "attr": {"T": {"type": "DT_FLOAT"}}}, {"name": "PartitionedCall/model_63/tf.math.add_353/Add", "op": "_FusedConv2D", "input": ["PartitionedCall/model_63/tf.math.multiply_1157/Mul", "86899", "86901"], "device": "/device:CPU:0", "attr": {"filter_format": {"s": "SFdJTw=="}, "data_format": {"s": "TkhXQw=="}, "leakyrelu_alpha": {"f": 0.2}, "epsilon": {"f": 0.0}, "num_host_args": {"i": "0"}, "explicit_paddings": {"list": {}}, "strides": {"list": {"i": ["1", "1", "1", "1"]}}, "dilations": {"list": {"i": ["1", "1", "1", "1"]}}, "T": {"type": "DT_FLOAT"}, "num_args": {"i": "1"}, "TArgs": {"list": {"type": ["DT_FLOAT"]}}, "padding": {"s": "U0FNRQ=="}, "fused_ops": {"list": {"s": ["Qmlhc0FkZA=="]}}, "use_cudnn_on_gpu": {"b": true}}}, {"name": "PartitionedCall/model_63/tf.math.sigmoid_265/Sigmoid", "op": "Sigmoid", "input": ["PartitionedCall/model_63/tf.math.add_353/Add"], "attr": {"T": {"type": "DT_FLOAT"}}}, {"name": "PartitionedCall/model_63/tf.math.multiply_1161/Mul", "op": "Mul", "input": ["PartitionedCall/model_63/tf.math.add_353/Add", "PartitionedCall/model_63/tf.math.sigmoid_265/Sigmoid"], "attr": {"T": {"type": "DT_FLOAT"}}}, {"name": "PartitionedCall/model_63/tf.concat_88/concat", "op": "ConcatV2", "input": ["PartitionedCall/model_63/tf.strided_slice_90/StridedSlice", "PartitionedCall/model_63/tf.strided_slice_91/StridedSlice", "PartitionedCall/model_63/tf.math.multiply_1161/Mul", "PartitionedCall/model_63/tf.concat_88/concat/axis"], "attr": {"Tidx": {"type": "DT_INT32"}, "N": {"i": "3"}, "T": {"type": "DT_FLOAT"}}}, {"name": "PartitionedCall/model_63/tf.math.add_354/Add", "op": "_FusedConv2D", "input": ["PartitionedCall/model_63/tf.concat_88/concat", "86907", "86909"], "device": "/device:CPU:0", "attr": {"explicit_paddings": {"list": {}}, "epsilon": {"f": 0.0}, "T": {"type": "DT_FLOAT"}, "fused_ops": {"list": {"s": ["Qmlhc0FkZA=="]}}, "leakyrelu_alpha": {"f": 0.2}, "dilations": {"list": {"i": ["1", "1", "1", "1"]}}, "use_cudnn_on_gpu": {"b": true}, "filter_format": {"s": "SFdJTw=="}, "padding": {"s": "U0FNRQ=="}, "TArgs": {"list": {"type": ["DT_FLOAT"]}}, "num_args": {"i": "1"}, "data_format": {"s": "TkhXQw=="}, "num_host_args": {"i": "0"}, "strides": {"list": {"i": ["1", "1", "1", "1"]}}}}, {"name": "PartitionedCall/model_63/tf.math.sigmoid_266/Sigmoid", "op": "Sigmoid", "input": ["PartitionedCall/model_63/tf.math.add_354/Add"], "attr": {"T": {"type": "DT_FLOAT"}}}, {"name": "PartitionedCall/model_63/tf.math.multiply_1165/Mul", "op": "Mul", "input": ["PartitionedCall/model_63/tf.math.add_354/Add", "PartitionedCall/model_63/tf.math.sigmoid_266/Sigmoid"], "attr": {"T": {"type": "DT_FLOAT"}}}, {"name": "PartitionedCall/model_63/tf.math.add_356/Add", "op": "_FusedConv2D", "input": ["PartitionedCall/model_63/tf.math.multiply_1165/Mul", "86981", "86993"], "device": "/device:CPU:0", "attr": {"num_args": {"i": "1"}, "explicit_paddings": {"list": {}}, "T": {"type": "DT_FLOAT"}, "leakyrelu_alpha": {"f": 0.2}, "TArgs": {"list": {"type": ["DT_FLOAT"]}}, "dilations": {"list": {"i": ["1", "1", "1", "1"]}}, "padding": {"s": "U0FNRQ=="}, "filter_format": {"s": "SFdJTw=="}, "num_host_args": {"i": "0"}, "data_format": {"s": "TkhXQw=="}, "strides": {"list": {"i": ["1", "1", "1", "1"]}}, "epsilon": {"f": 0.0}, "fused_ops": {"list": {"s": ["Qmlhc0FkZA=="]}}, "use_cudnn_on_gpu": {"b": true}}}, {"name": "PartitionedCall/model_63/tf.math.add_357/Add", "op": "_FusedConv2D", "input": ["PartitionedCall/model_63/tf.math.multiply_1165/Mul", "86979", "86991"], "device": "/device:CPU:0", "attr": {"strides": {"list": {"i": ["1", "1", "1", "1"]}}, "use_cudnn_on_gpu": {"b": true}, "explicit_paddings": {"list": {}}, "padding": {"s": "U0FNRQ=="}, "TArgs": {"list": {"type": ["DT_FLOAT"]}}, "filter_format": {"s": "SFdJTw=="}, "num_args": {"i": "1"}, "fused_ops": {"list": {"s": ["Qmlhc0FkZA=="]}}, "epsilon": {"f": 0.0}, "data_format": {"s": "TkhXQw=="}, "T": {"type": "DT_FLOAT"}, "dilations": {"list": {"i": ["1", "1", "1", "1"]}}, "num_host_args": {"i": "0"}, "leakyrelu_alpha": {"f": 0.2}}}, {"name": "PartitionedCall/model_63/tf.compat.v1.pad_33/Pad", "op": "Pad", "input": ["PartitionedCall/model_63/tf.math.multiply_1165/Mul", "86911"], "attr": {"T": {"type": "DT_FLOAT"}, "Tpaddings": {"type": "DT_INT32"}}}, {"name": "PartitionedCall/model_63/tf.math.sigmoid_268/Sigmoid", "op": "Sigmoid", "input": ["PartitionedCall/model_63/tf.math.add_356/Add"], "attr": {"T": {"type": "DT_FLOAT"}}}, {"name": "PartitionedCall/model_63/tf.math.sigmoid_269/Sigmoid", "op": "Sigmoid", "input": ["PartitionedCall/model_63/tf.math.add_357/Add"], "attr": {"T": {"type": "DT_FLOAT"}}}, {"name": "PartitionedCall/model_63/tf.math.add_355/Add", "op": "_FusedConv2D", "input": ["PartitionedCall/model_63/tf.compat.v1.pad_33/Pad", "86913", "86915"], "device": "/device:CPU:0", "attr": {"dilations": {"list": {"i": ["1", "1", "1", "1"]}}, "filter_format": {"s": "SFdJTw=="}, "data_format": {"s": "TkhXQw=="}, "T": {"type": "DT_FLOAT"}, "leakyrelu_alpha": {"f": 0.2}, "num_host_args": {"i": "0"}, "TArgs": {"list": {"type": ["DT_FLOAT"]}}, "epsilon": {"f": 0.0}, "strides": {"list": {"i": ["1", "2", "2", "1"]}}, "padding": {"s": "VkFMSUQ="}, "num_args": {"i": "1"}, "use_cudnn_on_gpu": {"b": true}, "fused_ops": {"list": {"s": ["Qmlhc0FkZA=="]}}, "explicit_paddings": {"list": {}}}}, {"name": "PartitionedCall/model_63/tf.math.multiply_1173/Mul", "op": "Mul", "input": ["PartitionedCall/model_63/tf.math.add_356/Add", "PartitionedCall/model_63/tf.math.sigmoid_268/Sigmoid"], "attr": {"T": {"type": "DT_FLOAT"}}}, {"name": "PartitionedCall/model_63/tf.math.multiply_1177/Mul", "op": "Mul", "input": ["PartitionedCall/model_63/tf.math.add_357/Add", "PartitionedCall/model_63/tf.math.sigmoid_269/Sigmoid"], "attr": {"T": {"type": "DT_FLOAT"}}}, {"name": "PartitionedCall/model_63/tf.math.sigmoid_267/Sigmoid", "op": "Sigmoid", "input": ["PartitionedCall/model_63/tf.math.add_355/Add"], "attr": {"T": {"type": "DT_FLOAT"}}}, {"name": "PartitionedCall/model_63/tf.math.add_358/Add", "op": "_FusedConv2D", "input": ["PartitionedCall/model_63/tf.math.multiply_1173/Mul", "87005", "87017"], "device": "/device:CPU:0", "attr": {"TArgs": {"list": {"type": ["DT_FLOAT"]}}, "leakyrelu_alpha": {"f": 0.2}, "filter_format": {"s": "SFdJTw=="}, "use_cudnn_on_gpu": {"b": true}, "num_args": {"i": "1"}, "num_host_args": {"i": "0"}, "data_format": {"s": "TkhXQw=="}, "strides": {"list": {"i": ["1", "1", "1", "1"]}}, "padding": {"s": "U0FNRQ=="}, "epsilon": {"f": 0.0}, "fused_ops": {"list": {"s": ["Qmlhc0FkZA=="]}}, "dilations": {"list": {"i": ["1", "1", "1", "1"]}}, "explicit_paddings": {"list": {}}, "T": {"type": "DT_FLOAT"}}}, {"name": "PartitionedCall/model_63/tf.math.add_359/Add", "op": "_FusedConv2D", "input": ["PartitionedCall/model_63/tf.math.multiply_1177/Mul", "87003", "87015"], "device": "/device:CPU:0", "attr": {"filter_format": {"s": "SFdJTw=="}, "strides": {"list": {"i": ["1", "1", "1", "1"]}}, "padding": {"s": "U0FNRQ=="}, "epsilon": {"f": 0.0}, "fused_ops": {"list": {"s": ["Qmlhc0FkZA=="]}}, "num_host_args": {"i": "0"}, "data_format": {"s": "TkhXQw=="}, "num_args": {"i": "1"}, "explicit_paddings": {"list": {}}, "use_cudnn_on_gpu": {"b": true}, "TArgs": {"list": {"type": ["DT_FLOAT"]}}, "dilations": {"list": {"i": ["1", "1", "1", "1"]}}, "T": {"type": "DT_FLOAT"}, "leakyrelu_alpha": {"f": 0.2}}}, {"name": "PartitionedCall/model_63/tf.math.multiply_1169/Mul", "op": "Mul", "input": ["PartitionedCall/model_63/tf.math.add_355/Add", "PartitionedCall/model_63/tf.math.sigmoid_267/Sigmoid"], "attr": {"T": {"type": "DT_FLOAT"}}}, {"name": "PartitionedCall/model_63/tf.math.sigmoid_270/Sigmoid", "op": "Sigmoid", "input": ["PartitionedCall/model_63/tf.math.add_358/Add"], "attr": {"T": {"type": "DT_FLOAT"}}}, {"name": "PartitionedCall/model_63/tf.math.sigmoid_271/Sigmoid", "op": "Sigmoid", "input": ["PartitionedCall/model_63/tf.math.add_359/Add"], "attr": {"T": {"type": "DT_FLOAT"}}}, {"name": "PartitionedCall/model_63/tf.concat_89/concat", "op": "ConcatV2", "input": ["PartitionedCall/model_63/tf.math.multiply_1169/Mul", "PartitionedCall/model_63/tf.math.multiply_1149/Mul", "PartitionedCall/model_63/tf.concat_89/concat/axis"], "attr": {"T": {"type": "DT_FLOAT"}, "Tidx": {"type": "DT_INT32"}, "N": {"i": "2"}}}, {"name": "PartitionedCall/model_63/tf.math.multiply_1181/Mul", "op": "Mul", "input": ["PartitionedCall/model_63/tf.math.add_358/Add", "PartitionedCall/model_63/tf.math.sigmoid_270/Sigmoid"], "attr": {"T": {"type": "DT_FLOAT"}}}, {"name": "PartitionedCall/model_63/tf.math.multiply_1185/Mul", "op": "Mul", "input": ["PartitionedCall/model_63/tf.math.add_359/Add", "PartitionedCall/model_63/tf.math.sigmoid_271/Sigmoid"], "attr": {"T": {"type": "DT_FLOAT"}}}, {"name": "PartitionedCall/model_63/tf.math.add_360/Add", "op": "_FusedConv2D", "input": ["PartitionedCall/model_63/tf.concat_89/concat", "86917", "86919"], "device": "/device:CPU:0", "attr": {"data_format": {"s": "TkhXQw=="}, "epsilon": {"f": 0.0}, "fused_ops": {"list": {"s": ["Qmlhc0FkZA=="]}}, "use_cudnn_on_gpu": {"b": true}, "T": {"type": "DT_FLOAT"}, "leakyrelu_alpha": {"f": 0.2}, "TArgs": {"list": {"type": ["DT_FLOAT"]}}, "num_args": {"i": "1"}, "num_host_args": {"i": "0"}, "dilations": {"list": {"i": ["1", "1", "1", "1"]}}, "filter_format": {"s": "SFdJTw=="}, "strides": {"list": {"i": ["1", "1", "1", "1"]}}, "padding": {"s": "U0FNRQ=="}, "explicit_paddings": {"list": {}}}}, {"name": "PartitionedCall/model_63/tf.math.add_361/Add", "op": "_FusedConv2D", "input": ["PartitionedCall/model_63/tf.math.multiply_1181/Mul", "87029", "87039"], "device": "/device:CPU:0", "attr": {"filter_format": {"s": "SFdJTw=="}, "explicit_paddings": {"list": {}}, "use_cudnn_on_gpu": {"b": true}, "leakyrelu_alpha": {"f": 0.2}, "TArgs": {"list": {"type": ["DT_FLOAT"]}}, "strides": {"list": {"i": ["1", "1", "1", "1"]}}, "num_host_args": {"i": "0"}, "num_args": {"i": "1"}, "epsilon": {"f": 0.0}, "padding": {"s": "U0FNRQ=="}, "T": {"type": "DT_FLOAT"}, "data_format": {"s": "TkhXQw=="}, "dilations": {"list": {"i": ["1", "1", "1", "1"]}}, "fused_ops": {"list": {"s": ["Qmlhc0FkZA=="]}}}}, {"name": "PartitionedCall/model_63/tf.math.add_362/Add", "op": "_FusedConv2D", "input": ["PartitionedCall/model_63/tf.math.multiply_1185/Mul", "87027", "87041"], "device": "/device:CPU:0", "attr": {"leakyrelu_alpha": {"f": 0.2}, "epsilon": {"f": 0.0}, "T": {"type": "DT_FLOAT"}, "filter_format": {"s": "SFdJTw=="}, "num_args": {"i": "1"}, "dilations": {"list": {"i": ["1", "1", "1", "1"]}}, "num_host_args": {"i": "0"}, "padding": {"s": "U0FNRQ=="}, "explicit_paddings": {"list": {}}, "data_format": {"s": "TkhXQw=="}, "strides": {"list": {"i": ["1", "1", "1", "1"]}}, "TArgs": {"list": {"type": ["DT_FLOAT"]}}, "fused_ops": {"list": {"s": ["Qmlhc0FkZA=="]}}, "use_cudnn_on_gpu": {"b": true}}}, {"name": "PartitionedCall/model_63/tf.math.sigmoid_272/Sigmoid", "op": "Sigmoid", "input": ["PartitionedCall/model_63/tf.math.add_360/Add"], "attr": {"T": {"type": "DT_FLOAT"}}}, {"name": "PartitionedCall/model_63/tf.concat_90/concat", "op": "ConcatV2", "input": ["PartitionedCall/model_63/tf.math.add_361/Add", "PartitionedCall/model_63/tf.math.add_362/Add", "PartitionedCall/model_63/tf.concat_90/concat/axis"], "attr": {"N": {"i": "2"}, "Tidx": {"type": "DT_INT32"}, "T": {"type": "DT_FLOAT"}}}, {"name": "PartitionedCall/model_63/tf.math.multiply_1189/Mul", "op": "Mul", "input": ["PartitionedCall/model_63/tf.math.add_360/Add", "PartitionedCall/model_63/tf.math.sigmoid_272/Sigmoid"], "attr": {"T": {"type": "DT_FLOAT"}}}, {"name": "PartitionedCall/model_63/tf.compat.v1.transpose_114/transpose", "op": "Transpose", "input": ["PartitionedCall/model_63/tf.concat_90/concat", "PartitionedCall/model_63/tf.compat.v1.transpose_114/transpose/perm"], "attr": {"Tperm": {"type": "DT_INT32"}, "T": {"type": "DT_FLOAT"}}}, {"name": "PartitionedCall/model_63/tf.strided_slice_92/StridedSlice", "op": "StridedSlice", "input": ["PartitionedCall/model_63/tf.math.multiply_1189/Mul", "86933", "86935", "PartitionedCall/model_63/tf.strided_slice_92/ones_like"], "attr": {"end_mask": {"i": "7"}, "new_axis_mask": {"i": "0"}, "begin_mask": {"i": "15"}, "ellipsis_mask": {"i": "0"}, "shrink_axis_mask": {"i": "0"}, "Index": {"type": "DT_INT64"}, "T": {"type": "DT_FLOAT"}}}, {"name": "PartitionedCall/model_63/tf.strided_slice_93/StridedSlice", "op": "StridedSlice", "input": ["PartitionedCall/model_63/tf.math.multiply_1189/Mul", "86921", "86923", "PartitionedCall/model_63/tf.strided_slice_93/ones_like"], "attr": {"new_axis_mask": {"i": "0"}, "begin_mask": {"i": "7"}, "Index": {"type": "DT_INT64"}, "end_mask": {"i": "7"}, "T": {"type": "DT_FLOAT"}, "shrink_axis_mask": {"i": "0"}, "ellipsis_mask": {"i": "0"}}}, {"name": "PartitionedCall/model_63/tf.reshape_62/Reshape", "op": "Reshape", "input": ["PartitionedCall/model_63/tf.compat.v1.transpose_114/transpose", "PartitionedCall/model_63/tf.reshape_62/Reshape/shape"], "attr": {"Tshape": {"type": "DT_INT32"}, "T": {"type": "DT_FLOAT"}}}, {"name": "PartitionedCall/model_63/tf.math.add_363/Add", "op": "_FusedConv2D", "input": ["PartitionedCall/model_63/tf.strided_slice_93/StridedSlice", "86925", "86927"], "device": "/device:CPU:0", "attr": {"padding": {"s": "U0FNRQ=="}, "num_args": {"i": "1"}, "use_cudnn_on_gpu": {"b": true}, "fused_ops": {"list": {"s": ["Qmlhc0FkZA=="]}}, "filter_format": {"s": "SFdJTw=="}, "explicit_paddings": {"list": {}}, "epsilon": {"f": 0.0}, "T": {"type": "DT_FLOAT"}, "data_format": {"s": "TkhXQw=="}, "num_host_args": {"i": "0"}, "TArgs": {"list": {"type": ["DT_FLOAT"]}}, "strides": {"list": {"i": ["1", "1", "1", "1"]}}, "leakyrelu_alpha": {"f": 0.2}, "dilations": {"list": {"i": ["1", "1", "1", "1"]}}}}, {"name": "PartitionedCall/model_63/tf.math.sigmoid_273/Sigmoid", "op": "Sigmoid", "input": ["PartitionedCall/model_63/tf.math.add_363/Add"], "attr": {"T": {"type": "DT_FLOAT"}}}, {"name": "PartitionedCall/model_63/tf.math.multiply_1193/Mul", "op": "Mul", "input": ["PartitionedCall/model_63/tf.math.add_363/Add", "PartitionedCall/model_63/tf.math.sigmoid_273/Sigmoid"], "attr": {"T": {"type": "DT_FLOAT"}}}, {"name": "PartitionedCall/model_63/tf.math.add_364/Add", "op": "_FusedConv2D", "input": ["PartitionedCall/model_63/tf.math.multiply_1193/Mul", "86929", "86931"], "device": "/device:CPU:0", "attr": {"dilations": {"list": {"i": ["1", "1", "1", "1"]}}, "data_format": {"s": "TkhXQw=="}, "TArgs": {"list": {"type": ["DT_FLOAT"]}}, "leakyrelu_alpha": {"f": 0.2}, "num_args": {"i": "1"}, "padding": {"s": "U0FNRQ=="}, "fused_ops": {"list": {"s": ["Qmlhc0FkZA=="]}}, "epsilon": {"f": 0.0}, "filter_format": {"s": "SFdJTw=="}, "num_host_args": {"i": "0"}, "T": {"type": "DT_FLOAT"}, "strides": {"list": {"i": ["1", "1", "1", "1"]}}, "use_cudnn_on_gpu": {"b": true}, "explicit_paddings": {"list": {}}}}, {"name": "PartitionedCall/model_63/tf.math.sigmoid_274/Sigmoid", "op": "Sigmoid", "input": ["PartitionedCall/model_63/tf.math.add_364/Add"], "attr": {"T": {"type": "DT_FLOAT"}}}, {"name": "PartitionedCall/model_63/tf.math.multiply_1197/Mul", "op": "Mul", "input": ["PartitionedCall/model_63/tf.math.add_364/Add", "PartitionedCall/model_63/tf.math.sigmoid_274/Sigmoid"], "attr": {"T": {"type": "DT_FLOAT"}}}, {"name": "PartitionedCall/model_63/tf.concat_91/concat", "op": "ConcatV2", "input": ["PartitionedCall/model_63/tf.strided_slice_92/StridedSlice", "PartitionedCall/model_63/tf.strided_slice_93/StridedSlice", "PartitionedCall/model_63/tf.math.multiply_1197/Mul", "PartitionedCall/model_63/tf.concat_91/concat/axis"], "attr": {"Tidx": {"type": "DT_INT32"}, "N": {"i": "3"}, "T": {"type": "DT_FLOAT"}}}, {"name": "PartitionedCall/model_63/tf.math.add_365/Add", "op": "_FusedConv2D", "input": ["PartitionedCall/model_63/tf.concat_91/concat", "86937", "86939"], "device": "/device:CPU:0", "attr": {"padding": {"s": "U0FNRQ=="}, "num_args": {"i": "1"}, "TArgs": {"list": {"type": ["DT_FLOAT"]}}, "data_format": {"s": "TkhXQw=="}, "epsilon": {"f": 0.0}, "fused_ops": {"list": {"s": ["Qmlhc0FkZA=="]}}, "explicit_paddings": {"list": {}}, "T": {"type": "DT_FLOAT"}, "num_host_args": {"i": "0"}, "use_cudnn_on_gpu": {"b": true}, "dilations": {"list": {"i": ["1", "1", "1", "1"]}}, "filter_format": {"s": "SFdJTw=="}, "leakyrelu_alpha": {"f": 0.2}, "strides": {"list": {"i": ["1", "1", "1", "1"]}}}}, {"name": "PartitionedCall/model_63/tf.math.sigmoid_275/Sigmoid", "op": "Sigmoid", "input": ["PartitionedCall/model_63/tf.math.add_365/Add"], "attr": {"T": {"type": "DT_FLOAT"}}}, {"name": "PartitionedCall/model_63/tf.math.multiply_1201/Mul", "op": "Mul", "input": ["PartitionedCall/model_63/tf.math.add_365/Add", "PartitionedCall/model_63/tf.math.sigmoid_275/Sigmoid"], "attr": {"T": {"type": "DT_FLOAT"}}}, {"name": "PartitionedCall/model_63/tf.math.add_367/Add", "op": "_FusedConv2D", "input": ["PartitionedCall/model_63/tf.math.multiply_1201/Mul", "86977", "86989"], "device": "/device:CPU:0", "attr": {"num_args": {"i": "1"}, "TArgs": {"list": {"type": ["DT_FLOAT"]}}, "filter_format": {"s": "SFdJTw=="}, "T": {"type": "DT_FLOAT"}, "explicit_paddings": {"list": {}}, "dilations": {"list": {"i": ["1", "1", "1", "1"]}}, "use_cudnn_on_gpu": {"b": true}, "num_host_args": {"i": "0"}, "data_format": {"s": "TkhXQw=="}, "fused_ops": {"list": {"s": ["Qmlhc0FkZA=="]}}, "padding": {"s": "U0FNRQ=="}, "epsilon": {"f": 0.0}, "strides": {"list": {"i": ["1", "1", "1", "1"]}}, "leakyrelu_alpha": {"f": 0.2}}}, {"name": "PartitionedCall/model_63/tf.math.add_368/Add", "op": "_FusedConv2D", "input": ["PartitionedCall/model_63/tf.math.multiply_1201/Mul", "86975", "86987"], "device": "/device:CPU:0", "attr": {"padding": {"s": "U0FNRQ=="}, "filter_format": {"s": "SFdJTw=="}, "strides": {"list": {"i": ["1", "1", "1", "1"]}}, "dilations": {"list": {"i": ["1", "1", "1", "1"]}}, "num_args": {"i": "1"}, "T": {"type": "DT_FLOAT"}, "use_cudnn_on_gpu": {"b": true}, "epsilon": {"f": 0.0}, "data_format": {"s": "TkhXQw=="}, "explicit_paddings": {"list": {}}, "fused_ops": {"list": {"s": ["Qmlhc0FkZA=="]}}, "leakyrelu_alpha": {"f": 0.2}, "TArgs": {"list": {"type": ["DT_FLOAT"]}}, "num_host_args": {"i": "0"}}}, {"name": "PartitionedCall/model_63/tf.compat.v1.pad_34/Pad", "op": "Pad", "input": ["PartitionedCall/model_63/tf.math.multiply_1201/Mul", "86941"], "attr": {"T": {"type": "DT_FLOAT"}, "Tpaddings": {"type": "DT_INT32"}}}, {"name": "PartitionedCall/model_63/tf.math.sigmoid_277/Sigmoid", "op": "Sigmoid", "input": ["PartitionedCall/model_63/tf.math.add_367/Add"], "attr": {"T": {"type": "DT_FLOAT"}}}, {"name": "PartitionedCall/model_63/tf.math.sigmoid_278/Sigmoid", "op": "Sigmoid", "input": ["PartitionedCall/model_63/tf.math.add_368/Add"], "attr": {"T": {"type": "DT_FLOAT"}}}, {"name": "PartitionedCall/model_63/tf.math.add_366/Add", "op": "_FusedConv2D", "input": ["PartitionedCall/model_63/tf.compat.v1.pad_34/Pad", "86943", "86945"], "device": "/device:CPU:0", "attr": {"leakyrelu_alpha": {"f": 0.2}, "dilations": {"list": {"i": ["1", "1", "1", "1"]}}, "T": {"type": "DT_FLOAT"}, "num_host_args": {"i": "0"}, "epsilon": {"f": 0.0}, "use_cudnn_on_gpu": {"b": true}, "strides": {"list": {"i": ["1", "2", "2", "1"]}}, "padding": {"s": "VkFMSUQ="}, "fused_ops": {"list": {"s": ["Qmlhc0FkZA=="]}}, "TArgs": {"list": {"type": ["DT_FLOAT"]}}, "explicit_paddings": {"list": {}}, "filter_format": {"s": "SFdJTw=="}, "data_format": {"s": "TkhXQw=="}, "num_args": {"i": "1"}}}, {"name": "PartitionedCall/model_63/tf.math.multiply_1209/Mul", "op": "Mul", "input": ["PartitionedCall/model_63/tf.math.add_367/Add", "PartitionedCall/model_63/tf.math.sigmoid_277/Sigmoid"], "attr": {"T": {"type": "DT_FLOAT"}}}, {"name": "PartitionedCall/model_63/tf.math.multiply_1213/Mul", "op": "Mul", "input": ["PartitionedCall/model_63/tf.math.add_368/Add", "PartitionedCall/model_63/tf.math.sigmoid_278/Sigmoid"], "attr": {"T": {"type": "DT_FLOAT"}}}, {"name": "PartitionedCall/model_63/tf.math.sigmoid_276/Sigmoid", "op": "Sigmoid", "input": ["PartitionedCall/model_63/tf.math.add_366/Add"], "attr": {"T": {"type": "DT_FLOAT"}}}, {"name": "PartitionedCall/model_63/tf.math.add_369/Add", "op": "_FusedConv2D", "input": ["PartitionedCall/model_63/tf.math.multiply_1209/Mul", "87001", "87013"], "device": "/device:CPU:0", "attr": {"use_cudnn_on_gpu": {"b": true}, "dilations": {"list": {"i": ["1", "1", "1", "1"]}}, "num_host_args": {"i": "0"}, "T": {"type": "DT_FLOAT"}, "leakyrelu_alpha": {"f": 0.2}, "padding": {"s": "U0FNRQ=="}, "fused_ops": {"list": {"s": ["Qmlhc0FkZA=="]}}, "strides": {"list": {"i": ["1", "1", "1", "1"]}}, "num_args": {"i": "1"}, "data_format": {"s": "TkhXQw=="}, "epsilon": {"f": 0.0}, "explicit_paddings": {"list": {}}, "TArgs": {"list": {"type": ["DT_FLOAT"]}}, "filter_format": {"s": "SFdJTw=="}}}, {"name": "PartitionedCall/model_63/tf.math.add_370/Add", "op": "_FusedConv2D", "input": ["PartitionedCall/model_63/tf.math.multiply_1213/Mul", "86999", "87011"], "device": "/device:CPU:0", "attr": {"use_cudnn_on_gpu": {"b": true}, "padding": {"s": "U0FNRQ=="}, "TArgs": {"list": {"type": ["DT_FLOAT"]}}, "T": {"type": "DT_FLOAT"}, "leakyrelu_alpha": {"f": 0.2}, "fused_ops": {"list": {"s": ["Qmlhc0FkZA=="]}}, "strides": {"list": {"i": ["1", "1", "1", "1"]}}, "num_args": {"i": "1"}, "data_format": {"s": "TkhXQw=="}, "filter_format": {"s": "SFdJTw=="}, "num_host_args": {"i": "0"}, "dilations": {"list": {"i": ["1", "1", "1", "1"]}}, "epsilon": {"f": 0.0}, "explicit_paddings": {"list": {}}}}, {"name": "PartitionedCall/model_63/tf.math.multiply_1205/Mul", "op": "Mul", "input": ["PartitionedCall/model_63/tf.math.add_366/Add", "PartitionedCall/model_63/tf.math.sigmoid_276/Sigmoid"], "attr": {"T": {"type": "DT_FLOAT"}}}, {"name": "PartitionedCall/model_63/tf.math.sigmoid_279/Sigmoid", "op": "Sigmoid", "input": ["PartitionedCall/model_63/tf.math.add_369/Add"], "attr": {"T": {"type": "DT_FLOAT"}}}, {"name": "PartitionedCall/model_63/tf.math.sigmoid_280/Sigmoid", "op": "Sigmoid", "input": ["PartitionedCall/model_63/tf.math.add_370/Add"], "attr": {"T": {"type": "DT_FLOAT"}}}, {"name": "PartitionedCall/model_63/tf.concat_92/concat", "op": "ConcatV2", "input": ["PartitionedCall/model_63/tf.math.multiply_1205/Mul", "PartitionedCall/model_63/tf.math.multiply_1133/Mul", "PartitionedCall/model_63/tf.concat_92/concat/axis"], "attr": {"N": {"i": "2"}, "Tidx": {"type": "DT_INT32"}, "T": {"type": "DT_FLOAT"}}}, {"name": "PartitionedCall/model_63/tf.math.multiply_1217/Mul", "op": "Mul", "input": ["PartitionedCall/model_63/tf.math.add_369/Add", "PartitionedCall/model_63/tf.math.sigmoid_279/Sigmoid"], "attr": {"T": {"type": "DT_FLOAT"}}}, {"name": "PartitionedCall/model_63/tf.math.multiply_1221/Mul", "op": "Mul", "input": ["PartitionedCall/model_63/tf.math.add_370/Add", "PartitionedCall/model_63/tf.math.sigmoid_280/Sigmoid"], "attr": {"T": {"type": "DT_FLOAT"}}}, {"name": "PartitionedCall/model_63/tf.math.add_371/Add", "op": "_FusedConv2D", "input": ["PartitionedCall/model_63/tf.concat_92/concat", "86947", "86949"], "device": "/device:CPU:0", "attr": {"T": {"type": "DT_FLOAT"}, "TArgs": {"list": {"type": ["DT_FLOAT"]}}, "dilations": {"list": {"i": ["1", "1", "1", "1"]}}, "strides": {"list": {"i": ["1", "1", "1", "1"]}}, "padding": {"s": "U0FNRQ=="}, "explicit_paddings": {"list": {}}, "use_cudnn_on_gpu": {"b": true}, "fused_ops": {"list": {"s": ["Qmlhc0FkZA=="]}}, "data_format": {"s": "TkhXQw=="}, "leakyrelu_alpha": {"f": 0.2}, "filter_format": {"s": "SFdJTw=="}, "epsilon": {"f": 0.0}, "num_args": {"i": "1"}, "num_host_args": {"i": "0"}}}, {"name": "PartitionedCall/model_63/tf.math.add_372/Add", "op": "_FusedConv2D", "input": ["PartitionedCall/model_63/tf.math.multiply_1217/Mul", "87025", "87035"], "device": "/device:CPU:0", "attr": {"epsilon": {"f": 0.0}, "filter_format": {"s": "SFdJTw=="}, "leakyrelu_alpha": {"f": 0.2}, "padding": {"s": "U0FNRQ=="}, "num_args": {"i": "1"}, "dilations": {"list": {"i": ["1", "1", "1", "1"]}}, "use_cudnn_on_gpu": {"b": true}, "explicit_paddings": {"list": {}}, "fused_ops": {"list": {"s": ["Qmlhc0FkZA=="]}}, "T": {"type": "DT_FLOAT"}, "data_format": {"s": "TkhXQw=="}, "strides": {"list": {"i": ["1", "1", "1", "1"]}}, "TArgs": {"list": {"type": ["DT_FLOAT"]}}, "num_host_args": {"i": "0"}}}, {"name": "PartitionedCall/model_63/tf.math.add_373/Add", "op": "_FusedConv2D", "input": ["PartitionedCall/model_63/tf.math.multiply_1221/Mul", "87023", "87037"], "device": "/device:CPU:0", "attr": {"T": {"type": "DT_FLOAT"}, "leakyrelu_alpha": {"f": 0.2}, "use_cudnn_on_gpu": {"b": true}, "num_args": {"i": "1"}, "explicit_paddings": {"list": {}}, "epsilon": {"f": 0.0}, "dilations": {"list": {"i": ["1", "1", "1", "1"]}}, "filter_format": {"s": "SFdJTw=="}, "fused_ops": {"list": {"s": ["Qmlhc0FkZA=="]}}, "num_host_args": {"i": "0"}, "data_format": {"s": "TkhXQw=="}, "strides": {"list": {"i": ["1", "1", "1", "1"]}}, "padding": {"s": "U0FNRQ=="}, "TArgs": {"list": {"type": ["DT_FLOAT"]}}}}, {"name": "PartitionedCall/model_63/tf.math.sigmoid_281/Sigmoid", "op": "Sigmoid", "input": ["PartitionedCall/model_63/tf.math.add_371/Add"], "attr": {"T": {"type": "DT_FLOAT"}}}, {"name": "PartitionedCall/model_63/tf.concat_93/concat", "op": "ConcatV2", "input": ["PartitionedCall/model_63/tf.math.add_372/Add", "PartitionedCall/model_63/tf.math.add_373/Add", "PartitionedCall/model_63/tf.concat_93/concat/axis"], "attr": {"Tidx": {"type": "DT_INT32"}, "N": {"i": "2"}, "T": {"type": "DT_FLOAT"}}}, {"name": "PartitionedCall/model_63/tf.math.multiply_1225/Mul", "op": "Mul", "input": ["PartitionedCall/model_63/tf.math.add_371/Add", "PartitionedCall/model_63/tf.math.sigmoid_281/Sigmoid"], "attr": {"T": {"type": "DT_FLOAT"}}}, {"name": "PartitionedCall/model_63/tf.compat.v1.transpose_119/transpose", "op": "Transpose", "input": ["PartitionedCall/model_63/tf.concat_93/concat", "PartitionedCall/model_63/tf.compat.v1.transpose_119/transpose/perm"], "attr": {"Tperm": {"type": "DT_INT32"}, "T": {"type": "DT_FLOAT"}}}, {"name": "PartitionedCall/model_63/tf.strided_slice_94/StridedSlice", "op": "StridedSlice", "input": ["PartitionedCall/model_63/tf.math.multiply_1225/Mul", "86963", "86965", "PartitionedCall/model_63/tf.strided_slice_94/ones_like"], "attr": {"end_mask": {"i": "7"}, "shrink_axis_mask": {"i": "0"}, "ellipsis_mask": {"i": "0"}, "begin_mask": {"i": "15"}, "new_axis_mask": {"i": "0"}, "T": {"type": "DT_FLOAT"}, "Index": {"type": "DT_INT64"}}}, {"name": "PartitionedCall/model_63/tf.strided_slice_95/StridedSlice", "op": "StridedSlice", "input": ["PartitionedCall/model_63/tf.math.multiply_1225/Mul", "86951", "86953", "PartitionedCall/model_63/tf.strided_slice_95/ones_like"], "attr": {"end_mask": {"i": "7"}, "shrink_axis_mask": {"i": "0"}, "ellipsis_mask": {"i": "0"}, "new_axis_mask": {"i": "0"}, "begin_mask": {"i": "7"}, "Index": {"type": "DT_INT64"}, "T": {"type": "DT_FLOAT"}}}, {"name": "PartitionedCall/model_63/tf.reshape_65/Reshape", "op": "Reshape", "input": ["PartitionedCall/model_63/tf.compat.v1.transpose_119/transpose", "PartitionedCall/model_63/tf.reshape_65/Reshape/shape"], "attr": {"Tshape": {"type": "DT_INT32"}, "T": {"type": "DT_FLOAT"}}}, {"name": "PartitionedCall/model_63/tf.math.add_374/Add", "op": "_FusedConv2D", "input": ["PartitionedCall/model_63/tf.strided_slice_95/StridedSlice", "86955", "86957"], "device": "/device:CPU:0", "attr": {"T": {"type": "DT_FLOAT"}, "explicit_paddings": {"list": {}}, "TArgs": {"list": {"type": ["DT_FLOAT"]}}, "fused_ops": {"list": {"s": ["Qmlhc0FkZA=="]}}, "strides": {"list": {"i": ["1", "1", "1", "1"]}}, "leakyrelu_alpha": {"f": 0.2}, "data_format": {"s": "TkhXQw=="}, "filter_format": {"s": "SFdJTw=="}, "num_args": {"i": "1"}, "use_cudnn_on_gpu": {"b": true}, "padding": {"s": "U0FNRQ=="}, "dilations": {"list": {"i": ["1", "1", "1", "1"]}}, "num_host_args": {"i": "0"}, "epsilon": {"f": 0.0}}}, {"name": "PartitionedCall/model_63/tf.math.sigmoid_282/Sigmoid", "op": "Sigmoid", "input": ["PartitionedCall/model_63/tf.math.add_374/Add"], "attr": {"T": {"type": "DT_FLOAT"}}}, {"name": "PartitionedCall/model_63/tf.math.multiply_1229/Mul", "op": "Mul", "input": ["PartitionedCall/model_63/tf.math.add_374/Add", "PartitionedCall/model_63/tf.math.sigmoid_282/Sigmoid"], "attr": {"T": {"type": "DT_FLOAT"}}}, {"name": "PartitionedCall/model_63/tf.math.add_375/Add", "op": "_FusedConv2D", "input": ["PartitionedCall/model_63/tf.math.multiply_1229/Mul", "86959", "86961"], "device": "/device:CPU:0", "attr": {"TArgs": {"list": {"type": ["DT_FLOAT"]}}, "leakyrelu_alpha": {"f": 0.2}, "strides": {"list": {"i": ["1", "1", "1", "1"]}}, "dilations": {"list": {"i": ["1", "1", "1", "1"]}}, "data_format": {"s": "TkhXQw=="}, "T": {"type": "DT_FLOAT"}, "filter_format": {"s": "SFdJTw=="}, "explicit_paddings": {"list": {}}, "epsilon": {"f": 0.0}, "fused_ops": {"list": {"s": ["Qmlhc0FkZA=="]}}, "use_cudnn_on_gpu": {"b": true}, "num_host_args": {"i": "0"}, "num_args": {"i": "1"}, "padding": {"s": "U0FNRQ=="}}}, {"name": "PartitionedCall/model_63/tf.math.sigmoid_283/Sigmoid", "op": "Sigmoid", "input": ["PartitionedCall/model_63/tf.math.add_375/Add"], "attr": {"T": {"type": "DT_FLOAT"}}}, {"name": "PartitionedCall/model_63/tf.math.multiply_1233/Mul", "op": "Mul", "input": ["PartitionedCall/model_63/tf.math.add_375/Add", "PartitionedCall/model_63/tf.math.sigmoid_283/Sigmoid"], "attr": {"T": {"type": "DT_FLOAT"}}}, {"name": "PartitionedCall/model_63/tf.concat_94/concat", "op": "ConcatV2", "input": ["PartitionedCall/model_63/tf.strided_slice_94/StridedSlice", "PartitionedCall/model_63/tf.strided_slice_95/StridedSlice", "PartitionedCall/model_63/tf.math.multiply_1233/Mul", "PartitionedCall/model_63/tf.concat_94/concat/axis"], "attr": {"Tidx": {"type": "DT_INT32"}, "T": {"type": "DT_FLOAT"}, "N": {"i": "3"}}}, {"name": "PartitionedCall/model_63/tf.math.add_376/Add", "op": "_FusedConv2D", "input": ["PartitionedCall/model_63/tf.concat_94/concat", "86967", "86969"], "device": "/device:CPU:0", "attr": {"fused_ops": {"list": {"s": ["Qmlhc0FkZA=="]}}, "T": {"type": "DT_FLOAT"}, "padding": {"s": "U0FNRQ=="}, "TArgs": {"list": {"type": ["DT_FLOAT"]}}, "dilations": {"list": {"i": ["1", "1", "1", "1"]}}, "use_cudnn_on_gpu": {"b": true}, "num_host_args": {"i": "0"}, "num_args": {"i": "1"}, "strides": {"list": {"i": ["1", "1", "1", "1"]}}, "epsilon": {"f": 0.0}, "filter_format": {"s": "SFdJTw=="}, "leakyrelu_alpha": {"f": 0.2}, "explicit_paddings": {"list": {}}, "data_format": {"s": "TkhXQw=="}}}, {"name": "PartitionedCall/model_63/tf.math.sigmoid_284/Sigmoid", "op": "Sigmoid", "input": ["PartitionedCall/model_63/tf.math.add_376/Add"], "attr": {"T": {"type": "DT_FLOAT"}}}, {"name": "PartitionedCall/model_63/tf.math.multiply_1237/Mul", "op": "Mul", "input": ["PartitionedCall/model_63/tf.math.add_376/Add", "PartitionedCall/model_63/tf.math.sigmoid_284/Sigmoid"], "attr": {"T": {"type": "DT_FLOAT"}}}, {"name": "PartitionedCall/model_63/tf.math.add_377/Add", "op": "_FusedConv2D", "input": ["PartitionedCall/model_63/tf.math.multiply_1237/Mul", "86973", "86985"], "device": "/device:CPU:0", "attr": {"use_cudnn_on_gpu": {"b": true}, "leakyrelu_alpha": {"f": 0.2}, "num_host_args": {"i": "0"}, "explicit_paddings": {"list": {}}, "filter_format": {"s": "SFdJTw=="}, "TArgs": {"list": {"type": ["DT_FLOAT"]}}, "strides": {"list": {"i": ["1", "1", "1", "1"]}}, "data_format": {"s": "TkhXQw=="}, "padding": {"s": "U0FNRQ=="}, "num_args": {"i": "1"}, "T": {"type": "DT_FLOAT"}, "epsilon": {"f": 0.0}, "fused_ops": {"list": {"s": ["Qmlhc0FkZA=="]}}, "dilations": {"list": {"i": ["1", "1", "1", "1"]}}}}, {"name": "PartitionedCall/model_63/tf.math.add_378/Add", "op": "_FusedConv2D", "input": ["PartitionedCall/model_63/tf.math.multiply_1237/Mul", "86971", "86983"], "device": "/device:CPU:0", "attr": {"filter_format": {"s": "SFdJTw=="}, "epsilon": {"f": 0.0}, "num_host_args": {"i": "0"}, "explicit_paddings": {"list": {}}, "padding": {"s": "U0FNRQ=="}, "TArgs": {"list": {"type": ["DT_FLOAT"]}}, "num_args": {"i": "1"}, "strides": {"list": {"i": ["1", "1", "1", "1"]}}, "T": {"type": "DT_FLOAT"}, "use_cudnn_on_gpu": {"b": true}, "data_format": {"s": "TkhXQw=="}, "leakyrelu_alpha": {"f": 0.2}, "dilations": {"list": {"i": ["1", "1", "1", "1"]}}, "fused_ops": {"list": {"s": ["Qmlhc0FkZA=="]}}}}, {"name": "PartitionedCall/model_63/tf.math.sigmoid_285/Sigmoid", "op": "Sigmoid", "input": ["PartitionedCall/model_63/tf.math.add_377/Add"], "attr": {"T": {"type": "DT_FLOAT"}}}, {"name": "PartitionedCall/model_63/tf.math.sigmoid_286/Sigmoid", "op": "Sigmoid", "input": ["PartitionedCall/model_63/tf.math.add_378/Add"], "attr": {"T": {"type": "DT_FLOAT"}}}, {"name": "PartitionedCall/model_63/tf.math.multiply_1241/Mul", "op": "Mul", "input": ["PartitionedCall/model_63/tf.math.add_377/Add", "PartitionedCall/model_63/tf.math.sigmoid_285/Sigmoid"], "attr": {"T": {"type": "DT_FLOAT"}}}, {"name": "PartitionedCall/model_63/tf.math.multiply_1245/Mul", "op": "Mul", "input": ["PartitionedCall/model_63/tf.math.add_378/Add", "PartitionedCall/model_63/tf.math.sigmoid_286/Sigmoid"], "attr": {"T": {"type": "DT_FLOAT"}}}, {"name": "PartitionedCall/model_63/tf.math.add_379/Add", "op": "_FusedConv2D", "input": ["PartitionedCall/model_63/tf.math.multiply_1241/Mul", "86997", "87009"], "device": "/device:CPU:0", "attr": {"dilations": {"list": {"i": ["1", "1", "1", "1"]}}, "epsilon": {"f": 0.0}, "fused_ops": {"list": {"s": ["Qmlhc0FkZA=="]}}, "padding": {"s": "U0FNRQ=="}, "T": {"type": "DT_FLOAT"}, "explicit_paddings": {"list": {}}, "num_args": {"i": "1"}, "filter_format": {"s": "SFdJTw=="}, "use_cudnn_on_gpu": {"b": true}, "TArgs": {"list": {"type": ["DT_FLOAT"]}}, "strides": {"list": {"i": ["1", "1", "1", "1"]}}, "data_format": {"s": "TkhXQw=="}, "num_host_args": {"i": "0"}, "leakyrelu_alpha": {"f": 0.2}}}, {"name": "PartitionedCall/model_63/tf.math.add_380/Add", "op": "_FusedConv2D", "input": ["PartitionedCall/model_63/tf.math.multiply_1245/Mul", "86995", "87007"], "device": "/device:CPU:0", "attr": {"strides": {"list": {"i": ["1", "1", "1", "1"]}}, "padding": {"s": "U0FNRQ=="}, "TArgs": {"list": {"type": ["DT_FLOAT"]}}, "num_args": {"i": "1"}, "dilations": {"list": {"i": ["1", "1", "1", "1"]}}, "fused_ops": {"list": {"s": ["Qmlhc0FkZA=="]}}, "filter_format": {"s": "SFdJTw=="}, "explicit_paddings": {"list": {}}, "num_host_args": {"i": "0"}, "data_format": {"s": "TkhXQw=="}, "leakyrelu_alpha": {"f": 0.2}, "use_cudnn_on_gpu": {"b": true}, "T": {"type": "DT_FLOAT"}, "epsilon": {"f": 0.0}}}, {"name": "PartitionedCall/model_63/tf.math.sigmoid_287/Sigmoid", "op": "Sigmoid", "input": ["PartitionedCall/model_63/tf.math.add_379/Add"], "attr": {"T": {"type": "DT_FLOAT"}}}, {"name": "PartitionedCall/model_63/tf.math.sigmoid_288/Sigmoid", "op": "Sigmoid", "input": ["PartitionedCall/model_63/tf.math.add_380/Add"], "attr": {"T": {"type": "DT_FLOAT"}}}, {"name": "PartitionedCall/model_63/tf.math.multiply_1249/Mul", "op": "Mul", "input": ["PartitionedCall/model_63/tf.math.add_379/Add", "PartitionedCall/model_63/tf.math.sigmoid_287/Sigmoid"], "attr": {"T": {"type": "DT_FLOAT"}}}, {"name": "PartitionedCall/model_63/tf.math.multiply_1253/Mul", "op": "Mul", "input": ["PartitionedCall/model_63/tf.math.add_380/Add", "PartitionedCall/model_63/tf.math.sigmoid_288/Sigmoid"], "attr": {"T": {"type": "DT_FLOAT"}}}, {"name": "PartitionedCall/model_63/tf.math.add_381/Add", "op": "_FusedConv2D", "input": ["PartitionedCall/model_63/tf.math.multiply_1249/Mul", "87021", "87031"], "device": "/device:CPU:0", "attr": {"data_format": {"s": "TkhXQw=="}, "T": {"type": "DT_FLOAT"}, "leakyrelu_alpha": {"f": 0.2}, "strides": {"list": {"i": ["1", "1", "1", "1"]}}, "explicit_paddings": {"list": {}}, "TArgs": {"list": {"type": ["DT_FLOAT"]}}, "num_args": {"i": "1"}, "filter_format": {"s": "SFdJTw=="}, "num_host_args": {"i": "0"}, "fused_ops": {"list": {"s": ["Qmlhc0FkZA=="]}}, "use_cudnn_on_gpu": {"b": true}, "dilations": {"list": {"i": ["1", "1", "1", "1"]}}, "padding": {"s": "U0FNRQ=="}, "epsilon": {"f": 0.0}}}, {"name": "PartitionedCall/model_63/tf.math.add_382/Add", "op": "_FusedConv2D", "input": ["PartitionedCall/model_63/tf.math.multiply_1253/Mul", "87019", "87033"], "device": "/device:CPU:0", "attr": {"num_host_args": {"i": "0"}, "filter_format": {"s": "SFdJTw=="}, "fused_ops": {"list": {"s": ["Qmlhc0FkZA=="]}}, "num_args": {"i": "1"}, "T": {"type": "DT_FLOAT"}, "dilations": {"list": {"i": ["1", "1", "1", "1"]}}, "epsilon": {"f": 0.0}, "explicit_paddings": {"list": {}}, "use_cudnn_on_gpu": {"b": true}, "data_format": {"s": "TkhXQw=="}, "padding": {"s": "U0FNRQ=="}, "leakyrelu_alpha": {"f": 0.2}, "TArgs": {"list": {"type": ["DT_FLOAT"]}}, "strides": {"list": {"i": ["1", "1", "1", "1"]}}}}, {"name": "PartitionedCall/model_63/tf.concat_95/concat", "op": "ConcatV2", "input": ["PartitionedCall/model_63/tf.math.add_381/Add", "PartitionedCall/model_63/tf.math.add_382/Add", "PartitionedCall/model_63/tf.concat_95/concat/axis"], "attr": {"N": {"i": "2"}, "Tidx": {"type": "DT_INT32"}, "T": {"type": "DT_FLOAT"}}}, {"name": "PartitionedCall/model_63/tf.compat.v1.transpose_124/transpose", "op": "Transpose", "input": ["PartitionedCall/model_63/tf.concat_95/concat", "PartitionedCall/model_63/tf.compat.v1.transpose_124/transpose/perm"], "attr": {"Tperm": {"type": "DT_INT32"}, "T": {"type": "DT_FLOAT"}}}, {"name": "PartitionedCall/model_63/tf.reshape_68/Reshape", "op": "Reshape", "input": ["PartitionedCall/model_63/tf.compat.v1.transpose_124/transpose", "PartitionedCall/model_63/tf.reshape_68/Reshape/shape"], "attr": {"T": {"type": "DT_FLOAT"}, "Tshape": {"type": "DT_INT32"}}}, {"name": "PartitionedCall/model_63/tf.concat_96/concat", "op": "ConcatV2", "input": ["PartitionedCall/model_63/tf.reshape_62/Reshape", "PartitionedCall/model_63/tf.reshape_65/Reshape", "PartitionedCall/model_63/tf.reshape_68/Reshape", "PartitionedCall/model_63/tf.concat_96/concat/axis"], "attr": {"N": {"i": "3"}, "T": {"type": "DT_FLOAT"}, "Tidx": {"type": "DT_INT32"}}}, {"name": "PartitionedCall/model_63/tf.strided_slice_97/StridedSlice", "op": "StridedSlice", "input": ["PartitionedCall/model_63/tf.concat_96/concat", "87063", "87065", "PartitionedCall/model_63/tf.strided_slice_97/StridedSlice/strides"], "attr": {"shrink_axis_mask": {"i": "0"}, "ellipsis_mask": {"i": "0"}, "Index": {"type": "DT_INT64"}, "end_mask": {"i": "5"}, "begin_mask": {"i": "5"}, "T": {"type": "DT_FLOAT"}, "new_axis_mask": {"i": "0"}}}, {"name": "PartitionedCall/model_63/tf.strided_slice_96/StridedSlice", "op": "StridedSlice", "input": ["PartitionedCall/model_63/tf.concat_96/concat", "87043", "87045", "PartitionedCall/model_63/tf.strided_slice_96/StridedSlice/strides"], "attr": {"end_mask": {"i": "5"}, "Index": {"type": "DT_INT64"}, "shrink_axis_mask": {"i": "0"}, "new_axis_mask": {"i": "0"}, "T": {"type": "DT_FLOAT"}, "ellipsis_mask": {"i": "0"}, "begin_mask": {"i": "7"}}}, {"name": "PartitionedCall/model_63/tf.math.sigmoid_289/Sigmoid", "op": "Sigmoid", "input": ["PartitionedCall/model_63/tf.strided_slice_97/StridedSlice"], "attr": {"T": {"type": "DT_FLOAT"}}}, {"name": "PartitionedCall/model_63/tf.reshape_71/Reshape", "op": "Reshape", "input": ["PartitionedCall/model_63/tf.strided_slice_96/StridedSlice", "PartitionedCall/model_63/tf.reshape_71/Reshape/shape"], "attr": {"Tshape": {"type": "DT_INT32"}, "T": {"type": "DT_FLOAT"}}}, {"name": "PartitionedCall/model_63/tf.compat.v1.transpose_131/transpose", "op": "Transpose", "input": ["PartitionedCall/model_63/tf.reshape_71/Reshape", "PartitionedCall/model_63/tf.compat.v1.transpose_131/transpose/perm"], "attr": {"Tperm": {"type": "DT_INT32"}, "T": {"type": "DT_FLOAT"}}}, {"name": "PartitionedCall/model_63/tf.compat.v1.transpose_132/transpose", "op": "Transpose", "input": ["PartitionedCall/model_63/tf.compat.v1.transpose_131/transpose", "PartitionedCall/model_63/tf.compat.v1.transpose_132/transpose/perm"], "attr": {"Tperm": {"type": "DT_INT32"}, "T": {"type": "DT_FLOAT"}}}, {"name": "PartitionedCall/model_63/tf.nn.softmax_4//model.22/dfl/Softmax", "op": "Softmax", "input": ["PartitionedCall/model_63/tf.compat.v1.transpose_132/transpose"], "attr": {"T": {"type": "DT_FLOAT"}}}, {"name": "PartitionedCall/model_63/tf.nn.convolution_319/convolution", "op": "Conv2D", "input": ["PartitionedCall/model_63/tf.nn.softmax_4//model.22/dfl/Softmax", "87047"], "device": "/device:CPU:0", "attr": {"explicit_paddings": {"list": {}}, "padding": {"s": "U0FNRQ=="}, "data_format": {"s": "TkhXQw=="}, "dilations": {"list": {"i": ["1", "1", "1", "1"]}}, "use_cudnn_on_gpu": {"b": true}, "T": {"type": "DT_FLOAT"}, "strides": {"list": {"i": ["1", "1", "1", "1"]}}}}, {"name": "PartitionedCall/model_63/tf.compat.v1.transpose_137/transpose", "op": "Transpose", "input": ["PartitionedCall/model_63/tf.nn.convolution_319/convolution", "PartitionedCall/model_63/tf.compat.v1.transpose_137/transpose/perm"], "attr": {"Tperm": {"type": "DT_INT32"}, "T": {"type": "DT_FLOAT"}}}, {"name": "PartitionedCall/model_63/tf.reshape_74/Reshape", "op": "Reshape", "input": ["PartitionedCall/model_63/tf.compat.v1.transpose_137/transpose", "PartitionedCall/model_63/tf.reshape_74/Reshape/shape"], "attr": {"Tshape": {"type": "DT_INT32"}, "T": {"type": "DT_FLOAT"}}}, {"name": "PartitionedCall/model_63/tf.strided_slice_99/StridedSlice", "op": "StridedSlice", "input": ["PartitionedCall/model_63/tf.reshape_74/Reshape", "87049", "87051", "PartitionedCall/model_63/tf.strided_slice_99/ones_like"], "attr": {"ellipsis_mask": {"i": "0"}, "shrink_axis_mask": {"i": "0"}, "Index": {"type": "DT_INT64"}, "end_mask": {"i": "5"}, "begin_mask": {"i": "5"}, "T": {"type": "DT_FLOAT"}, "new_axis_mask": {"i": "0"}}}, {"name": "PartitionedCall/model_63/tf.strided_slice_98/StridedSlice", "op": "StridedSlice", "input": ["PartitionedCall/model_63/tf.reshape_74/Reshape", "87053", "87055", "PartitionedCall/model_63/tf.strided_slice_98/ones_like"], "attr": {"shrink_axis_mask": {"i": "0"}, "T": {"type": "DT_FLOAT"}, "new_axis_mask": {"i": "0"}, "begin_mask": {"i": "7"}, "end_mask": {"i": "5"}, "Index": {"type": "DT_INT64"}, "ellipsis_mask": {"i": "0"}}}, {"name": "PartitionedCall/model_63/tf.math.add_383/Add", "op": "AddV2", "input": ["87057", "PartitionedCall/model_63/tf.strided_slice_99/StridedSlice"], "attr": {"T": {"type": "DT_FLOAT"}}}, {"name": "PartitionedCall/model_63/tf.math.subtract_8/Sub", "op": "Sub", "input": ["87059", "PartitionedCall/model_63/tf.strided_slice_98/StridedSlice"], "attr": {"T": {"type": "DT_FLOAT"}}}, {"name": "PartitionedCall/model_63/tf.math.add_384/Add", "op": "AddV2", "input": ["PartitionedCall/model_63/tf.math.subtract_8/Sub", "PartitionedCall/model_63/tf.math.add_383/Add"], "attr": {"T": {"type": "DT_FLOAT"}}}, {"name": "PartitionedCall/model_63/tf.math.subtract_9/Sub", "op": "Sub", "input": ["PartitionedCall/model_63/tf.math.add_383/Add", "PartitionedCall/model_63/tf.math.subtract_8/Sub"], "attr": {"T": {"type": "DT_FLOAT"}}}, {"name": "PartitionedCall/model_63/tf.math.divide_4/truediv", "op": "Mul", "input": ["PartitionedCall/model_63/tf.math.add_384/Add", "ConstantFolding/PartitionedCall/model_63/tf.math.divide_4/truediv_recip"], "attr": {"T": {"type": "DT_FLOAT"}}}, {"name": "PartitionedCall/model_63/tf.concat_100/concat", "op": "ConcatV2", "input": ["PartitionedCall/model_63/tf.math.divide_4/truediv", "PartitionedCall/model_63/tf.math.subtract_9/Sub", "PartitionedCall/model_63/tf.concat_100/concat/axis"], "attr": {"Tidx": {"type": "DT_INT32"}, "T": {"type": "DT_FLOAT"}, "N": {"i": "2"}}}, {"name": "PartitionedCall/model_63/tf.math.multiply_1266/Mul", "op": "Mul", "input": ["PartitionedCall/model_63/tf.concat_100/concat", "PartitionedCall/model_63/tf.math.multiply_1266/Mul/y"], "attr": {"T": {"type": "DT_FLOAT"}}}, {"name": "PartitionedCall/model_63/output0/concat", "op": "ConcatV2", "input": ["PartitionedCall/model_63/tf.math.multiply_1266/Mul", "PartitionedCall/model_63/tf.math.sigmoid_289/Sigmoid", "PartitionedCall/model_63/output0/concat/axis"], "attr": {"N": {"i": "2"}, "Tidx": {"type": "DT_INT32"}, "T": {"type": "DT_FLOAT"}}}, {"name": "Identity", "op": "Identity", "input": ["PartitionedCall/model_63/output0/concat"], "attr": {"T": {"type": "DT_FLOAT"}}}], "library": {}, "versions": {"producer": 1766}}, "weightsManifest": [{"paths": ["group1-shard1of4.bin", "group1-shard2of4.bin", "group1-shard3of4.bin", "group1-shard4of4.bin"], "weights": [{"name": "ConstantFolding/PartitionedCall/model_63/tf.math.divide_4/truediv_recip", "shape": [1, 1, 1], "dtype": "float32"}, {"name": "87057", "shape": [1, 2, 13125], "dtype": "float32"}, {"name": "87049", "shape": [3], "dtype": "int32"}, {"name": "87051", "shape": [3], "dtype": "int32"}, {"name": "PartitionedCall/model_63/tf.strided_slice_99/ones_like", "shape": [3], "dtype": "int32"}, {"name": "87059", "shape": [1, 2, 13125], "dtype": "float32"}, {"name": "87043", "shape": [3], "dtype": "int32"}, {"name": "87045", "shape": [3], "dtype": "int32"}, {"name": "PartitionedCall/model_63/tf.strided_slice_96/StridedSlice/strides", "shape": [3], "dtype": "int32"}, {"name": "PartitionedCall/model_63/tf.reshape_71/Reshape/shape", "shape": [4], "dtype": "int32"}, {"name": "PartitionedCall/model_63/tf.compat.v1.transpose_131/transpose/perm", "shape": [4], "dtype": "int32"}, {"name": "PartitionedCall/model_63/tf.compat.v1.transpose_132/transpose/perm", "shape": [4], "dtype": "int32"}, {"name": "87047", "shape": [1, 1, 16, 1], "dtype": "float32"}, {"name": "PartitionedCall/model_63/tf.compat.v1.transpose_137/transpose/perm", "shape": [4], "dtype": "int32"}, {"name": "PartitionedCall/model_63/tf.reshape_74/Reshape/shape", "shape": [3], "dtype": "int32"}, {"name": "87053", "shape": [3], "dtype": "int32"}, {"name": "87055", "shape": [3], "dtype": "int32"}, {"name": "PartitionedCall/model_63/tf.strided_slice_98/ones_like", "shape": [3], "dtype": "int32"}, {"name": "PartitionedCall/model_63/tf.concat_100/concat/axis", "shape": [], "dtype": "int32"}, {"name": "PartitionedCall/model_63/tf.math.multiply_1266/Mul/y", "shape": [1, 1, 13125], "dtype": "float32"}, {"name": "86981", "shape": [3, 3, 64, 64], "dtype": "float32"}, {"name": "86993", "shape": [64], "dtype": "float32"}, {"name": "87005", "shape": [3, 3, 64, 64], "dtype": "float32"}, {"name": "87017", "shape": [64], "dtype": "float32"}, {"name": "87029", "shape": [1, 1, 64, 64], "dtype": "float32"}, {"name": "87039", "shape": [64], "dtype": "float32"}, {"name": "86979", "shape": [3, 3, 64, 80], "dtype": "float32"}, {"name": "86991", "shape": [80], "dtype": "float32"}, {"name": "87003", "shape": [3, 3, 80, 80], "dtype": "float32"}, {"name": "87015", "shape": [80], "dtype": "float32"}, {"name": "87027", "shape": [1, 1, 80, 80], "dtype": "float32"}, {"name": "87041", "shape": [80], "dtype": "float32"}, {"name": "PartitionedCall/model_63/tf.concat_90/concat/axis", "shape": [], "dtype": "int32"}, {"name": "PartitionedCall/model_63/tf.compat.v1.transpose_114/transpose/perm", "shape": [4], "dtype": "int32"}, {"name": "PartitionedCall/model_63/tf.reshape_62/Reshape/shape", "shape": [3], "dtype": "int32"}, {"name": "86977", "shape": [3, 3, 128, 64], "dtype": "float32"}, {"name": "86989", "shape": [64], "dtype": "float32"}, {"name": "87001", "shape": [3, 3, 64, 64], "dtype": "float32"}, {"name": "87013", "shape": [64], "dtype": "float32"}, {"name": "87025", "shape": [1, 1, 64, 64], "dtype": "float32"}, {"name": "87035", "shape": [64], "dtype": "float32"}, {"name": "86975", "shape": [3, 3, 128, 80], "dtype": "float32"}, {"name": "86987", "shape": [80], "dtype": "float32"}, {"name": "86999", "shape": [3, 3, 80, 80], "dtype": "float32"}, {"name": "87011", "shape": [80], "dtype": "float32"}, {"name": "87023", "shape": [1, 1, 80, 80], "dtype": "float32"}, {"name": "87037", "shape": [80], "dtype": "float32"}, {"name": "PartitionedCall/model_63/tf.concat_93/concat/axis", "shape": [], "dtype": "int32"}, {"name": "PartitionedCall/model_63/tf.compat.v1.transpose_119/transpose/perm", "shape": [4], "dtype": "int32"}, {"name": "PartitionedCall/model_63/tf.reshape_65/Reshape/shape", "shape": [3], "dtype": "int32"}, {"name": "86973", "shape": [3, 3, 256, 64], "dtype": "float32"}, {"name": "86985", "shape": [64], "dtype": "float32"}, {"name": "86997", "shape": [3, 3, 64, 64], "dtype": "float32"}, {"name": "87009", "shape": [64], "dtype": "float32"}, {"name": "87021", "shape": [1, 1, 64, 64], "dtype": "float32"}, {"name": "87031", "shape": [64], "dtype": "float32"}, {"name": "86963", "shape": [4], "dtype": "int32"}, {"name": "86965", "shape": [4], "dtype": "int32"}, {"name": "PartitionedCall/model_63/tf.strided_slice_94/ones_like", "shape": [4], "dtype": "int32"}, {"name": "86933", "shape": [4], "dtype": "int32"}, {"name": "86935", "shape": [4], "dtype": "int32"}, {"name": "PartitionedCall/model_63/tf.strided_slice_92/ones_like", "shape": [4], "dtype": "int32"}, {"name": "86903", "shape": [4], "dtype": "int32"}, {"name": "86905", "shape": [4], "dtype": "int32"}, {"name": "PartitionedCall/model_63/tf.strided_slice_90/ones_like", "shape": [4], "dtype": "int32"}, {"name": "PartitionedCall/model_63/tf.image.resize_9/resize/size", "shape": [2], "dtype": "int32"}, {"name": "PartitionedCall/model_63/tf.concat_87/concat/axis", "shape": [], "dtype": "int32"}, {"name": "86887", "shape": [1, 1, 192, 64], "dtype": "float32"}, {"name": "86889", "shape": [64], "dtype": "float32"}, {"name": "86891", "shape": [4], "dtype": "int32"}, {"name": "86893", "shape": [4], "dtype": "int32"}, {"name": "PartitionedCall/model_63/tf.strided_slice_91/ones_like", "shape": [4], "dtype": "int32"}, {"name": "86895", "shape": [3, 3, 32, 32], "dtype": "float32"}, {"name": "86897", "shape": [32], "dtype": "float32"}, {"name": "86899", "shape": [3, 3, 32, 32], "dtype": "float32"}, {"name": "86901", "shape": [32], "dtype": "float32"}, {"name": "PartitionedCall/model_63/tf.concat_88/concat/axis", "shape": [], "dtype": "int32"}, {"name": "86907", "shape": [1, 1, 96, 64], "dtype": "float32"}, {"name": "86909", "shape": [64], "dtype": "float32"}, {"name": "86911", "shape": [4, 2], "dtype": "int32"}, {"name": "86913", "shape": [3, 3, 64, 64], "dtype": "float32"}, {"name": "86915", "shape": [64], "dtype": "float32"}, {"name": "86879", "shape": [4], "dtype": "int32"}, {"name": "86881", "shape": [4], "dtype": "int32"}, {"name": "PartitionedCall/model_63/tf.strided_slice_88/ones_like", "shape": [4], "dtype": "int32"}, {"name": "PartitionedCall/model_63/tf.image.resize_8/resize/size", "shape": [2], "dtype": "int32"}, {"name": "PartitionedCall/model_63/tf.concat_85/concat/axis", "shape": [], "dtype": "int32"}, {"name": "86863", "shape": [1, 1, 384, 128], "dtype": "float32"}, {"name": "86865", "shape": [128], "dtype": "float32"}, {"name": "86867", "shape": [4], "dtype": "int32"}, {"name": "86869", "shape": [4], "dtype": "int32"}, {"name": "PartitionedCall/model_63/tf.strided_slice_89/ones_like", "shape": [4], "dtype": "int32"}, {"name": "86871", "shape": [3, 3, 64, 64], "dtype": "float32"}, {"name": "86873", "shape": [64], "dtype": "float32"}, {"name": "86875", "shape": [3, 3, 64, 64], "dtype": "float32"}, {"name": "86877", "shape": [64], "dtype": "float32"}, {"name": "PartitionedCall/model_63/tf.concat_86/concat/axis", "shape": [], "dtype": "int32"}, {"name": "86883", "shape": [1, 1, 192, 128], "dtype": "float32"}, {"name": "86885", "shape": [128], "dtype": "float32"}, {"name": "PartitionedCall/model_63/tf.concat_89/concat/axis", "shape": [], "dtype": "int32"}, {"name": "86917", "shape": [1, 1, 192, 128], "dtype": "float32"}, {"name": "86919", "shape": [128], "dtype": "float32"}, {"name": "86921", "shape": [4], "dtype": "int32"}, {"name": "86923", "shape": [4], "dtype": "int32"}, {"name": "PartitionedCall/model_63/tf.strided_slice_93/ones_like", "shape": [4], "dtype": "int32"}, {"name": "86925", "shape": [3, 3, 64, 64], "dtype": "float32"}, {"name": "86927", "shape": [64], "dtype": "float32"}, {"name": "86929", "shape": [3, 3, 64, 64], "dtype": "float32"}, {"name": "86931", "shape": [64], "dtype": "float32"}, {"name": "PartitionedCall/model_63/tf.concat_91/concat/axis", "shape": [], "dtype": "int32"}, {"name": "86937", "shape": [1, 1, 192, 128], "dtype": "float32"}, {"name": "86939", "shape": [128], "dtype": "float32"}, {"name": "86941", "shape": [4, 2], "dtype": "int32"}, {"name": "86943", "shape": [3, 3, 128, 128], "dtype": "float32"}, {"name": "86945", "shape": [128], "dtype": "float32"}, {"name": "86847", "shape": [4], "dtype": "int32"}, {"name": "86849", "shape": [4], "dtype": "int32"}, {"name": "PartitionedCall/model_63/tf.strided_slice_86/ones_like", "shape": [4], "dtype": "int32"}, {"name": "86817", "shape": [4], "dtype": "int32"}, {"name": "86819", "shape": [4], "dtype": "int32"}, {"name": "PartitionedCall/model_63/tf.strided_slice_84/ones_like", "shape": [4], "dtype": "int32"}, {"name": "86779", "shape": [4], "dtype": "int32"}, {"name": "86781", "shape": [4], "dtype": "int32"}, {"name": "PartitionedCall/model_63/tf.strided_slice_82/ones_like", "shape": [4], "dtype": "int32"}, {"name": "86741", "shape": [4], "dtype": "int32"}, {"name": "86743", "shape": [4], "dtype": "int32"}, {"name": "PartitionedCall/model_63/tf.strided_slice_80/ones_like", "shape": [4], "dtype": "int32"}, {"name": "86713", "shape": [4, 2], "dtype": "int32"}, {"name": "86715", "shape": [3, 3, 3, 16], "dtype": "float32"}, {"name": "86717", "shape": [16], "dtype": "float32"}, {"name": "86719", "shape": [4, 2], "dtype": "int32"}, {"name": "86721", "shape": [3, 3, 16, 32], "dtype": "float32"}, {"name": "86723", "shape": [32], "dtype": "float32"}, {"name": "86725", "shape": [1, 1, 32, 32], "dtype": "float32"}, {"name": "86727", "shape": [32], "dtype": "float32"}, {"name": "86729", "shape": [4], "dtype": "int32"}, {"name": "86731", "shape": [4], "dtype": "int32"}, {"name": "PartitionedCall/model_63/tf.strided_slice_81/ones_like", "shape": [4], "dtype": "int32"}, {"name": "86733", "shape": [3, 3, 16, 16], "dtype": "float32"}, {"name": "86735", "shape": [16], "dtype": "float32"}, {"name": "86737", "shape": [3, 3, 16, 16], "dtype": "float32"}, {"name": "86739", "shape": [16], "dtype": "float32"}, {"name": "PartitionedCall/model_63/tf.concat_80/concat/axis", "shape": [], "dtype": "int32"}, {"name": "86745", "shape": [1, 1, 48, 32], "dtype": "float32"}, {"name": "86747", "shape": [32], "dtype": "float32"}, {"name": "86749", "shape": [4, 2], "dtype": "int32"}, {"name": "86751", "shape": [3, 3, 32, 64], "dtype": "float32"}, {"name": "86753", "shape": [64], "dtype": "float32"}, {"name": "86755", "shape": [1, 1, 64, 64], "dtype": "float32"}, {"name": "86757", "shape": [64], "dtype": "float32"}, {"name": "86759", "shape": [4], "dtype": "int32"}, {"name": "86761", "shape": [4], "dtype": "int32"}, {"name": "PartitionedCall/model_63/tf.strided_slice_83/ones_like", "shape": [4], "dtype": "int32"}, {"name": "86763", "shape": [3, 3, 32, 32], "dtype": "float32"}, {"name": "86765", "shape": [32], "dtype": "float32"}, {"name": "86767", "shape": [3, 3, 32, 32], "dtype": "float32"}, {"name": "86769", "shape": [32], "dtype": "float32"}, {"name": "86771", "shape": [3, 3, 32, 32], "dtype": "float32"}, {"name": "86773", "shape": [32], "dtype": "float32"}, {"name": "86775", "shape": [3, 3, 32, 32], "dtype": "float32"}, {"name": "86777", "shape": [32], "dtype": "float32"}, {"name": "PartitionedCall/model_63/tf.concat_81/concat/axis", "shape": [], "dtype": "int32"}, {"name": "86783", "shape": [1, 1, 128, 64], "dtype": "float32"}, {"name": "86785", "shape": [64], "dtype": "float32"}, {"name": "86787", "shape": [4, 2], "dtype": "int32"}, {"name": "86789", "shape": [3, 3, 64, 128], "dtype": "float32"}, {"name": "86791", "shape": [128], "dtype": "float32"}, {"name": "86793", "shape": [1, 1, 128, 128], "dtype": "float32"}, {"name": "86795", "shape": [128], "dtype": "float32"}, {"name": "86797", "shape": [4], "dtype": "int32"}, {"name": "86799", "shape": [4], "dtype": "int32"}, {"name": "PartitionedCall/model_63/tf.strided_slice_85/ones_like", "shape": [4], "dtype": "int32"}, {"name": "86801", "shape": [3, 3, 64, 64], "dtype": "float32"}, {"name": "86803", "shape": [64], "dtype": "float32"}, {"name": "86805", "shape": [3, 3, 64, 64], "dtype": "float32"}, {"name": "86807", "shape": [64], "dtype": "float32"}, {"name": "86809", "shape": [3, 3, 64, 64], "dtype": "float32"}, {"name": "86811", "shape": [64], "dtype": "float32"}, {"name": "86813", "shape": [3, 3, 64, 64], "dtype": "float32"}, {"name": "86815", "shape": [64], "dtype": "float32"}, {"name": "PartitionedCall/model_63/tf.concat_82/concat/axis", "shape": [], "dtype": "int32"}, {"name": "86821", "shape": [1, 1, 256, 128], "dtype": "float32"}, {"name": "86823", "shape": [128], "dtype": "float32"}, {"name": "86825", "shape": [4, 2], "dtype": "int32"}, {"name": "86827", "shape": [3, 3, 128, 256], "dtype": "float32"}, {"name": "86829", "shape": [256], "dtype": "float32"}, {"name": "86831", "shape": [1, 1, 256, 256], "dtype": "float32"}, {"name": "86833", "shape": [256], "dtype": "float32"}, {"name": "86835", "shape": [4], "dtype": "int32"}, {"name": "86837", "shape": [4], "dtype": "int32"}, {"name": "PartitionedCall/model_63/tf.strided_slice_87/ones_like", "shape": [4], "dtype": "int32"}, {"name": "86839", "shape": [3, 3, 128, 128], "dtype": "float32"}, {"name": "86841", "shape": [128], "dtype": "float32"}, {"name": "86843", "shape": [3, 3, 128, 128], "dtype": "float32"}, {"name": "86845", "shape": [128], "dtype": "float32"}, {"name": "PartitionedCall/model_63/tf.concat_83/concat/axis", "shape": [], "dtype": "int32"}, {"name": "86851", "shape": [1, 1, 384, 256], "dtype": "float32"}, {"name": "86853", "shape": [256], "dtype": "float32"}, {"name": "86855", "shape": [1, 1, 256, 128], "dtype": "float32"}, {"name": "86857", "shape": [128], "dtype": "float32"}, {"name": "PartitionedCall/model_63/tf.concat_84/concat/axis", "shape": [], "dtype": "int32"}, {"name": "86859", "shape": [1, 1, 512, 256], "dtype": "float32"}, {"name": "86861", "shape": [256], "dtype": "float32"}, {"name": "PartitionedCall/model_63/tf.concat_92/concat/axis", "shape": [], "dtype": "int32"}, {"name": "86947", "shape": [1, 1, 384, 256], "dtype": "float32"}, {"name": "86949", "shape": [256], "dtype": "float32"}, {"name": "86951", "shape": [4], "dtype": "int32"}, {"name": "86953", "shape": [4], "dtype": "int32"}, {"name": "PartitionedCall/model_63/tf.strided_slice_95/ones_like", "shape": [4], "dtype": "int32"}, {"name": "86955", "shape": [3, 3, 128, 128], "dtype": "float32"}, {"name": "86957", "shape": [128], "dtype": "float32"}, {"name": "86959", "shape": [3, 3, 128, 128], "dtype": "float32"}, {"name": "86961", "shape": [128], "dtype": "float32"}, {"name": "PartitionedCall/model_63/tf.concat_94/concat/axis", "shape": [], "dtype": "int32"}, {"name": "86967", "shape": [1, 1, 384, 256], "dtype": "float32"}, {"name": "86969", "shape": [256], "dtype": "float32"}, {"name": "86971", "shape": [3, 3, 256, 80], "dtype": "float32"}, {"name": "86983", "shape": [80], "dtype": "float32"}, {"name": "86995", "shape": [3, 3, 80, 80], "dtype": "float32"}, {"name": "87007", "shape": [80], "dtype": "float32"}, {"name": "87019", "shape": [1, 1, 80, 80], "dtype": "float32"}, {"name": "87033", "shape": [80], "dtype": "float32"}, {"name": "PartitionedCall/model_63/tf.concat_95/concat/axis", "shape": [], "dtype": "int32"}, {"name": "PartitionedCall/model_63/tf.compat.v1.transpose_124/transpose/perm", "shape": [4], "dtype": "int32"}, {"name": "PartitionedCall/model_63/tf.reshape_68/Reshape/shape", "shape": [3], "dtype": "int32"}, {"name": "PartitionedCall/model_63/tf.concat_96/concat/axis", "shape": [], "dtype": "int32"}, {"name": "87063", "shape": [3], "dtype": "int32"}, {"name": "87065", "shape": [3], "dtype": "int32"}, {"name": "PartitionedCall/model_63/tf.strided_slice_97/StridedSlice/strides", "shape": [3], "dtype": "int32"}, {"name": "PartitionedCall/model_63/output0/concat/axis", "shape": [], "dtype": "int32"}]}]}